weights/fox/actor.pth (torch, 28032 bytes, 4 tensors)

fc1.weight f4 [128, 33]
-0.16033554 0.039819367 -0.14282435 -0.117354214 0.0026237937 0.114208385 0.028757177 -0.14929198
-0.059146184 -0.15329713 -0.07912437 -0.008380523 -0.0019119466 -0.010858771 -0.019943563 -0.0097682895
0.16848029 0.13585176 -0.006412714 -0.048999507 0.1281927 -0.03854528 0.018176267 0.120724976
0.006348574 0.11783405 -0.12114346 0.031449445 -0.115982145 -0.096820146 0.16652215 0.12451176
0.08488823 -0.11077652 -0.05349451 -0.11488869 -0.12411858 0.12666829 -0.056339875 -0.0030198488
-0.084319435 0.16883451 0.051000256 -0.16681334 -0.08784058 -0.015966449 0.00685691 0.08220252
-0.038914166 0.16408418 -0.15478739 -0.06306537 0.054480407 -0.09773392 0.06306222 0.05434401
0.1073269 0.10316353 -0.1850991 0.12934232 -0.11090399 0.027886756 -0.11046093 -0.03028223
0.033406515 0.1314442 0.15768757 0.0716474 -0.1355197 0.059514936 0.09934804 -0.03916011
-0.029286895 0.11955494 0.022963224 -0.08009078 -0.05296675 -0.103894666 -0.06992594 0.12981947
0.017814817 0.013407869 -0.014811189 0.09039917 -0.09572235 0.077322505 -0.12886322 0.1232261
-0.055312917 0.1700611 -0.040035907 0.13155298 -0.06288781 0.13884945 0.07229436 -0.0054353424
-0.10322056 -0.00872588 0.0018972479 -0.019157136 -0.15088281 0.035952725 0.1261787 0.035618607
-0.13028598 0.087027594 0.05677906 -0.031605337 -0.13553993 0.043179817 0.06670345 0.14236932
-0.11958446 -0.13928656 -0.14134122 0.041745547 0.04828181 0.1638322 -0.062674984 0.030464686
-0.1540356 0.037110854 -0.103889175 0.0076500606 0.15971467 -0.16319002 -0.09281296 0.028453317
-0.10655022 0.040670794 0.026071904 -0.14855088 -0.03066734 -0.1596524 0.06457261 -0.031696998
0.012764275 -0.0744047 -0.12162654 -0.03051574 0.06000969 0.099222995 -0.061046135 -0.004567851
-0.103482224 -0.024463324 0.012085394 -0.081377804 0.12247017 -0.072370835 -0.0028026744 -0.111036465
-0.018768683 0.10633758 -0.022053199 0.13962315 0.1558084 -0.16468833 -0.04643565 0.003854213
0.03789601 0.049047947 -0.043341354 -0.1403581 0.16134997 -0.017230196 -0.011374155 0.053901065
0.057089116 -0.1519039 -0.022841895 0.07309769 0.12832107 -0.18007164 -0.090919375 0.074114256
-0.118294194 0.0034009656 -0.13951226 0.09874915 0.017675411 -0.086025834 -0.031834606 -0.03762061
-0.059462152 -0.16327581 0.12550701 -0.14748895 0.081930876 0.14734012 0.06140603 -0.036151282
-0.07119697 -0.1840515 -0.01460797 0.095744036 0.011861391 0.1388997 0.113120176 -0.15863824
0.051741157 -0.13222179 0.12712495 -0.12323112 0.105839826 0.0104802875 -0.096848585 -0.15515955
-0.11149155 0.1664655 0.1711656 -0.06681451 -0.0054363185 -0.0044219573 0.11119737 0.13133197
-0.08043683 0.10898435 -0.04448773 -0.11499708 -0.038070373 -0.06588592 0.16382696 0.13070637
-0.094128214 -0.10893302 0.15309109 0.15560423 -0.08433055 0.121533945 0.008881049 0.17952153
0.07803843 -0.16749944 -0.12939341 -0.092878096 -0.022381943 -0.1166429 -0.107439265 -0.18388782
0.12129917 -0.005196979 0.13367164 -0.14808555 0.13541387 -0.07735726 -0.04789488 0.053103764
0.15717253 0.18561597 0.08007522 0.0813737 -0.13328041 0.0070262887 0.0356487 -0.15186125
00000000: 002f 24be a219 233d 8c40 12be 6857 f0bd
00000010: f4f3 2b3b 16e6 e93d 2c94 eb3c ffdf 18be
00000020: 4543 72bd ecf9 1cbe f50b a2bd 764e 09bc
00000030: 489a faba fde8 31bc af60 a3bc 2d0b 20bc
00000040: 1986 2c3e b91c 0b3e be21 d2bb b5b3 48bd
00000050: f244 033e a8e1 1dbd 65e6 943c a83e f73d
00000060: b307 d03b fa52 f13d 101a f8bd 22d1 003d
00000070: 0c88 edbd a449 c6bd c884 2a3e 0600 ff3d
00000080: e1d9 ad3d cdde e2bd 0f1d 5bbd c34a ebbd
00000090: e231 febd 55b5 013e a4c4 66bd a8e8 45bb
000000a0: abaf acbd f4e2 2c3e a5e5 503d 1ed1 2abe
000000b0: c3e5 b3bd 12cc 82bc eeaf e03b cb59 a83d
000000c0: 7664 1fbd af05 283e 9680 1ebe 6b28 81bd
000000d0: d926 5f3d b928 c8bd c426 813d d397 5e3d
000000e0: 35ce db3d 6747 d33d 9e8a 3dbe 5072 043e
000000f0: a221 e3bd c472 e43c 5739 e2bd 7012 f8bc
00000100: 45d5 083d 4f99 063e da78 213e dfbb 923d
00000110: adc5 0abe efc5 733d fc76 cb3d 5a66 20bd
00000120: 12eb efbc 38d9 f43d 5f1d bc3c a306 a4bd
00000130: aaf3 58bd bac6 d4bd 5535 8fbd 65ef 043e
00000140: 61f0 913c aeac 5b3c a1aa 72bc 3323 b93d
00000150: 140a c4bd 435b 9e3d b8f4 03be f75d fc3d
00000160: cc8f 62bd 7f24 2e3e b1fc 23bd d3b5 063e
00000170: 53cb 80bd 8d2e 0e3e 110f 943d f51a b2bb
00000180: 4d65 d3bd fef6 0ebc 13ad f83a 6def 9cbc
00000190: 0681 1abe 2a43 133d fd34 013e d1e4 113d
000001a0: b069 05be 863b b23d 2991 683d 9974 01bd
000001b0: fbca 0abe 52dd 303d d29b 883d 43c9 113e
000001c0: b3e8 f4bd 23a1 0ebe c1bb 10be 61fd 2a3d
000001d0: 26c3 453d a1c3 273e be5b 80bd 1491 f93c
000001e0: 82bb 1dbe 8d01 183d d9c3 d4bd 5cad fa3b
000001f0: 3e8c 233e 491b 27be b914 bebd ee16 e93c
00000200: 0037 dabd 6b96 263d bf94 d53c b91d 18be
00000210: 133a fbbc eb7b 23be a53e 843d b6d4 01bd
00000220: 4021 513c 7e61 98bd 5617 f9bd 25fc f9bc
00000230: b8cc 753d 6d35 cb3d 830b 7abd e9ad 95bb
00000240: 7dee d3bd 4f67 c8bc d101 463c 68a9 a6bd
00000250: a4d1 fa3d 2937 94bd 13ad 37bb 1667 e3bd
00000260: c8c0 99bc 84c7 d93d e9a8 b4bc 5ff9 0e3e
00000270: 3d8c 1f3e 0fa4 28be 4f33 3ebd f796 7c3b
00000280: d938 1b3d 80e6 483d b486 31bd 09ba 0fbe
00000290: ed38 253e 5726 8dbc aa5a 3abc 5dc7 5c3d
000002a0: 47d6 693d b28c 1bbe ed1e bbbc 3eb4 953d
000002b0: 9966 033e b364 38be f033 babd 37c9 973d
000002c0: 3a44 f2bd bce2 5e3b 4ddc 0ebe ff3c ca3d
000002d0: 06cc 903c 502e b0bd 0165 02bd 1218 1abd
000002e0: 968e 73bd c631 27be e984 003e 5807 17be
000002f0: 60cb a73d 54e0 163e e484 7b3d 5e13 14bd
00000300: b8cf 91bd ff77 3cbe 4456 6fbc 7315 c43d
00000310: 4856 423c b93b 0e3e 8dab e73d 1072 22be
00000320: 89ee 533d 2665 07be 0b2d 023e 9960 fcbd
00000330: 8dc2 d83d 83b5 2b3c 8d58 c6bd 25e2 1ebe
00000340: af55 e4bd ef75 2a3e 0946 2f3e 0cd6 88bd
00000350: 2523 b2bb 11e6 90bb 72bb e33d e37b 063e
00000360: 11bc a4bd 3033 df3d c438 36bd 9783 ebbd
00000370: aeef 1bbd 32ef 86bd 41c2 273e e4d7 053e
00000380: 4bc6 c0bd 4618 dfbd e9c3 1c3e b756 1f3e
00000390: 7fb5 acbd cae6 f83d d281 113c 7ed4 373e
000003a0: 9dd2 9f3d f984 2bbe b57f 04be df36 bebd
000003b0: 565a b7bc 79e2 eebd 1e09 dcbd 174d 3cbe
000003c0: b36b f83d 6b4b aabb 38e1 083e bda3 17be
000003d0: efa9 0a3e 7c6d 9ebd 6c2d 44bd 5583 593d
000003e0: d6f1 203e 1d12 3e3e 7afe a33d 41a7 a63d
000003f0: a97a 08be c83c e63b 5f04 123d 8481 1bbe

fc1.bias f4 [128]
-0.04701387 -0.00736697 -0.16455136 0.14883697 0.0112862475 -0.1584433 0.17737564 -0.01612749
-0.13656789 -0.16413279 0.09802696 0.091040656 0.11196318 0.07459495 -0.16478683 -0.066954315
-0.065269195 0.16324241 0.10478526 0.1021025 -0.13625127 0.038284436 -0.12132178 0.10410824
0.024934694 -0.04700618 -0.02548316 0.173008 -0.14664268 0.13146344 0.08946677 0.073915474
0.080816284 0.0813214 0.09265462 0.1227756 0.09494498 0.1164122 -0.1640462 0.042738948
0.14355706 0.15230305 -0.052135516 0.114324756 0.024162566 0.016902976 0.016619679 -0.12563951
0.090512805 0.1634551 -0.014186759 -0.05577351 -0.046991944 0.1603203 -0.09317083 0.09993701
-0.011786708 0.08837914 0.15695822 -0.10479431 0.042939857 -0.14921989 0.09804428 -0.10611914
0.15792792 0.08312607 -0.06420481 -0.05020315 -0.10633886 0.09114314 0.0702964 -0.045829207
-0.0073537617 -0.14974666 0.09718516 0.022236308 0.11461268 -0.121449046 -0.043099504 -0.15036099
-0.13273335 0.0132282 -0.09806105 -0.072672024 0.049660932 0.12639682 0.004607839 0.17579444
-0.00912423 -0.06642614 -0.14311174 0.0490693 0.14808927 0.13822776 -0.013788621 0.17508054
-0.09422646 -0.048915118 -0.06828083 0.011752593 0.110113 0.15762427 0.17945544 0.081938565
0.010523099 -0.17558348 -0.11644838 -0.013225203 -0.096438535 0.13877603 0.115230724 0.001975573
0.058380205 -0.08612118 0.13102026 -0.039670095 0.07987889 -0.12679064 -0.15425077 0.061224952
0.1779826 -0.0970505 0.13767105 -0.08998211 -0.14622106 0.05537036 -0.17261061 0.01459964
00000000: 9e91 40bd a066 f1bb 2780 28be b868 183e
00000010: f4e9 383c f63e 22be f6a1 353e cc1d 84bc
00000020: 74d8 0bbe 6d12 28be 5cc2 c83d 8673 ba3d
00000030: f44c e53d 3dc5 983d e1bd 28be 581f 89bd
00000040: dbab 85bd 0529 273e a899 d63d 1e1b d13d
00000050: 7485 0bbe 24d0 1c3d 8e77 f8bd b336 d53d
00000060: d843 cc3c 8d89 40bd 0fc2 d0bc 0229 313e
00000070: 8029 16be 5a9e 063e 5b3a b73d ff60 973d
00000080: 0283 a53d d68b a63d b5c1 bd3d c671 fb3d
00000090: 8472 c23d 8569 ee3d bafb 27be 090f 2f3d
000000a0: 9f00 133e 55f5 1b3e 0d8c 55bd 1923 ea3d
000000b0: 93f0 c53c 1c78 8a3c fe25 883c a5a7 00be
000000c0: c75e b93d c660 273e 946f 68bc c472 64bd
000000d0: a07a 40bd 012b 243e 59d0 bebd c6ab cc3d
000000e0: 091d 41bc 1f00 b53d a8b9 203e 669e d6bd
000000f0: b4e1 2f3d 19cd 18be 71cb c83d fe54 d9bd
00000100: dbb7 213e 003e aa3d d07d 83bd d1a1 4dbd
00000110: 30c8 d9bd 41a9 ba3d 8ff7 8f3d 68b7 3bbd
00000120: d3f7 f0bb 3057 19be 0309 c73d eb28 b63c
00000130: 0eba ea3d 47ba f8bd 1b89 30bd 3bf8 19be
00000140: 40eb 07be 18bb 583c 3bd4 c8bd 12d5 94bd
00000150: 4369 4b3d 2b6e 013e 5bfd 963b 7503 343e
00000160: cb7d 15bc 6e0a 88bd e28b 12be e4fc 483d
00000170: b7a4 173e 948b 0d3e abe9 61bc 5048 333e
00000180: cdf9 c0bd 385b 48bd d2d6 8bbd f38d 403c
00000190: ed82 e13d 4268 213e 2bc3 373e 68cf a73d
000001a0: 1469 2c3c 28cc 33be 7d7c eebd 86ae 58bc
000001b0: 9181 c5bd 4e1b 0e3e 16fe eb3d 9d78 013b
000001c0: 1520 6f3d 4d60 b0bd 2d2a 063e 1c7d 22bd
000001d0: 8b97 a33d 68d5 01be eaf3 1dbe 04c7 7a3d
000001e0: 1241 363e 6ac2 c6bd a4f9 0c3e 8a48 b8bd
000001f0: f9ba 15be 08cc 623d d6c0 30be 5433 6f3c

fc2.weight f4 [17, 128]
-0.022119734 0.008175995 0.0633083 -0.05662727 0.08019225 -0.05900168 0.027525632 0.05028405
0.0012837616 0.066672206 0.07989333 -0.054539286 0.05844852 -0.05413335 -0.027992964 0.025976326
0.06840452 0.07072487 -0.0049787643 -0.07847279 -0.045229 0.05378341 -0.024324033 -0.050064985
0.02487744 0.0040676384 0.040394764 -0.03778895 0.053546675 -0.021137098 -0.054421715 0.08768182
0.020762773 -0.0329506 -0.011441031 0.028935041 0.031969417 0.03955164 -0.012583457 -0.09988962
-0.008268734 -0.043950975 -0.024930513 0.068026915 0.08596327 -0.056401893 -0.020039214 0.06212575
0.06275212 0.03627992 0.04923542 0.07605586 -0.05772092 0.0066413977 -0.010860692 0.007652003
0.017385831 -0.08460964 0.070652075 0.08469493 0.064650655 0.08719733 -0.07939526 -0.02682522
-0.04538141 -0.09750312 0.040392168 0.03479286 0.050091196 0.05308468 0.07499917 0.022790127
0.034659807 -0.028365169 0.019050727 0.0966972 -0.04032517 -0.057873163 0.018737817 0.042270973
-0.042271774 -0.08404063 0.072387 0.06473683 -0.07440283 0.015997102 0.013409182 -0.002281133
-0.016540991 -0.009608795 0.08563985 0.015565327 0.073385194 0.059010208 -0.010292731 0.0060025593
-0.06630252 0.06110775 0.036611788 -0.025904078 0.07092161 0.053648632 0.017156105 -0.04003754
0.026911445 0.005286247 0.0664402 -0.06635928 -0.09472635 0.03644456 -0.07532381 -0.09894173
-0.02413137 0.07635408 -0.044581816 -0.013390328 -0.035977274 -0.031888034 0.05356561 -0.032076646
0.041508332 -0.010913672 0.016303437 0.035877567 0.0707124 0.019601602 0.098059244 -0.032342285
0.041244943 -0.024287533 -0.047978774 -0.10245496 -0.06750623 -0.093675666 -0.059353765 0.04698974
-0.028146802 0.050939146 0.048965022 0.02725622 -0.06313903 0.012401185 -0.06609594 0.06903213
-0.039665166 -0.016420882 0.01552819 -0.03296736 0.03239584 0.053401746 0.025495674 0.029940575
-0.10451067 -0.014166434 -0.04522546 -0.04248226 -0.05502348 -0.055413302 0.032710023 -0.019595547
-0.047684677 0.08314542 0.029130345 0.017077072 0.05540912 -0.078917734 -0.0121375825 -0.0966286
0.056798752 -0.006004168 0.054993838 0.023684599 0.057874925 -0.00954029 -0.10024087 0.02053008
0.013021886 0.03884602 -0.018460698 0.05127656 -0.06586762 -0.0057287705 -0.08577681 0.043155592
-0.0012539533 0.06090382 -0.06980757 -0.05634252 -0.048344273 -0.056741394 0.03701212 0.0444924
0.054926913 -0.1108414 0.07987686 -0.039081883 -0.037821405 0.081621096 -0.00865262 -0.07177786
0.040684614 -0.08111524 0.026270686 -0.10249301 -0.08166467 -0.010291491 0.009289339 -0.07479154
0.018759755 -0.05077234 -0.049356535 -0.013277787 0.07383759 -0.03411218 -0.04753366 -0.07286865
-0.03664713 -0.09568395 -0.08277662 -0.01827863 -0.045809593 -0.06205337 0.062305912 -0.04782505
-0.098108456 0.10545956 0.0077559073 0.017420601 0.08568398 -0.061123624 0.05479586 -0.08402962
-0.0919255 -0.06931371 0.020151587 0.056526378 0.015131034 0.014373514 -0.09954432 0.05960542
0.021277526 -0.060850497 0.020846196 -0.04229798 0.065744475 0.016764676 -0.02913068 0.027287547
0.013319613 -0.08223577 -0.071464576 0.053697724 -0.016376175 -0.04204212 0.020100024 -0.023560988
00000000: 7234 b5bc 9cf4 053c c8a7 813d fff1 67bd
00000010: d63b a43d bfab 71bd 6f7d e13c a6f6 4d3d
00000020: e443 a83a 708b 883d 1d9f a33d 9664 5fbd
00000030: b767 6f3d eeba 5dbd 8051 e5bc 4ecc d43c
00000040: ab17 8c3d 33d8 903d e724 a3bb 58b6 a0bd
00000050: 0b42 39bd fe4b 5c3d 3243 c7bc f110 4dbd
00000060: c6cb cb3c d349 853b fb74 253d 96c8 1abd
00000070: c253 5b3d b527 adbc 4ee9 5ebd 8792 b33d
00000080: b116 aa3c 35f7 06bd 2973 3bbc 2e09 ed3c
00000090: 5df2 023d e700 223d d82a 4ebc ee92 ccbd
000000a0: 9679 07bc f005 34bd 133b ccbc b251 8b3d
000000b0: 830d b03d ac05 67bd 4729 a4bc 9277 7e3d
000000c0: 2f84 803d 419a 143d 14ab 493d 2dc3 9b3d
000000d0: c56c 6cbd 15a0 d93b 0bf1 31bc a7bd fa3b
000000e0: bb6c 8e3c d247 adbd 09b2 903d 8974 ad3d
000000f0: 9067 843d 8494 b23d fb99 a2bd 90c0 dbbc
00000100: dbe1 39bd b7af c7bd 4272 253d f582 0e3d
00000110: 6d2c 4d3d 526f 593d 2a99 993d 5cb2 ba3c
00000120: 71f7 0d3d 125e e8bc 4510 9c3c 2e09 c63d
00000130: 012c 25bd 690c 6dbd 0d80 993c 5424 2d3d
00000140: 2b25 2dbd 7e1d acbd a33f 943d be94 843d
00000150: 8360 98bd 5b0c 833c 30b2 5b3c 107f 15bb
00000160: f980 87bc 356e 1dbc f263 af3d b705 7f3c
00000170: fa4a 963d b0b4 713d d8a2 28bc 1eb1 c43b
00000180: 9ec9 87bd 1f4c 7a3d 3ef6 153d ca34 d4bc
00000190: 593f 913d abbe 5b3d f68a 8c3c 67fe 23bd
000001a0: 6475 dc3c 4138 ad3b cd11 883d 60e7 87bd
000001b0: e3ff c1bd e446 153d 5f43 9abd f6a1 cabd
000001c0: 27af c5bc 875f 9c3d 6c9b 36bd 1b63 5bbc
000001d0: e85c 13bd 079d 02bd 9d67 5b3d cd62 03bd
000001e0: a404 2a3d 42cf 32bc c98e 853c 5bf4 123d
000001f0: aad1 903d 8a93 a03c 49d3 c83d 5879 04bd
00000200: 75f0 283d a6f6 c6bc 6485 44bd e8d3 d1bd
00000210: b540 8abd 07d9 bfbd ef1c 73bd 5078 403d
00000220: 1f94 e6bc 91a5 503d 8c8f 483d 7048 df3c
00000230: 094f 81bd 572e 4b3c 4f5d 87bd b860 8d3d
00000240: f177 22bd 1685 86bc f369 7e3c c808 07bd
00000250: 80b1 043d cabb 5a3d 4edc d03c f045 f53c
00000260: b109 d6bd 551a 68bc 553e 39bd e101 2ebd
00000270: 4d60 61bd 0ff9 62bd f2fa 053d d786 a0bc
00000280: 0251 43bd 2548 aa3d c3a2 ee3c 37e5 8b3c
00000290: acf4 623d 9f9f a1bd b6dc 46bc 37e5 c5bd
000002a0: cfa5 683d 9dbe c4bb 3841 613d 3406 c23c
000002b0: 420e 6d3d e04e 1cbc 164b cdbd b32e a83c
000002c0: c059 553c 011d 1f3d e43a 97bc 5f07 523d
000002d0: 9ae5 86bd 69b8 bbbb c1ab afbd ebc3 303d
000002e0: b15b a4ba 4976 793d 45f7 8ebd 6ac7 66bd
000002f0: a504 46bd aa69 68bd 059a 173d aa3d 363d
00000300: 0bfb 603d d100 e3bd 7b96 a33d 5314 20bd
00000310: 9eea 1abd f628 a73d b8c3 0dbc 4500 93bd
00000320: e9a4 263d bf1f a6bd 9f35 d73c dbe7 d1bd
00000330: ce3f a7bd a49d 28bc 5032 183c 4f2c 99bd
00000340: 0fae 993c a8f6 4fbd 142a 4abd 138b 59bc
00000350: 2a38 973d 37b9 0bbd a8b2 42bd 293c 95bd
00000360: 4d1b 16bd f2f5 c3bd ca86 a9bd 11bd 95bc
00000370: d7a2 3bbd ad2b 7ebd 7c34 7f3d 33e4 43bd
00000380: 16ed c8bd 2ffb d73d 4425 fe3b a6b5 8e3c
00000390: 157b af3d c45c 7abd a071 603d b917 acbd
000003a0: 7043 bcbd 59f4 8dbd f114 a53c 3488 673d
000003b0: 28e8 773c e37e 6b3c e4dd cbbd d024 743d
000003c0: 354e ae3c 5f3e 79bd a4c5 aa3c a640 2dbd
000003d0: 0aa5 863d 1356 893c 77a3 eebc 228a df3c
000003e0: 823a 5a3c 3a6b a8bd 055c 92bd 25f2 5b3d
000003f0: 5427 86bc 5c34 2cbd cea8 a43c f902 c1bc

fc2.bias f4 [17]
-0.05681021 -0.034075905 -0.012792575 0.009110414 -0.00895299 0.06700435 -0.021590307 0.084071696
-0.07793244 0.0042557307 -0.062183987 -0.03603761 0.07145113 0.044451293 -0.05371657 -0.060911525
0.08185994
00000000: d3b1 68bd 2d93 0bbd f397 51bc d943 153c
00000010: 90af 12bc 9439 893d 28de b0bc c82d ac3d
00000020: 0b9b 9fbd a873 8b3b a3b4 7ebd 2c9c 13bd
00000030: f854 923d 8f12 363d e805 5cbd 5d7e 79bd
00000040: 2fa6 a73d
