weights/fox/critic.pth (torch, 19784 bytes, 3 tensors)

fc1.weight f4 [128, 33]
0	0xbe79b71d	-0.24386258
1	0xbbecee61	-0.0072305654
2	0xbcbaab17	-0.02278666
3	0xbdee1db1	-0.11626757
4	0xbe2918ca	-0.16513363
5	0xbdce5479	-0.10074706
6	0x3d1d45f4	0.03839679
7	0xbdee308b	-0.116303526
8	0xbe1026e9	-0.14077343
9	0xbd7c0c84	-0.061535373
10	0xbe449a0e	-0.19199392
11	0xbe459d49	-0.19298281
12	0xbe568b69	-0.20951618
13	0xbe614819	-0.2200016
14	0xbe1d3f4e	-0.1535618
15	0xbe689feb	-0.22717254
16	0xbe309565	-0.1724449
17	0xbe339c58	-0.17540109
18	0x3ca9616f	0.020676343
19	0xbddf5d43	-0.1090646
20	0xbde073f0	-0.10959613
21	0xbe67f365	-0.22651441
22	0x3cebbf48	0.028777733
23	0xbd724b3f	-0.05915379
24	0xbe2b2f86	-0.16717348
25	0xbe4e0416	-0.20118746
26	0x3b995d17	0.0046802866
27	0xbca1bde1	-0.019743862
28	0xbca6db58	-0.020368263
29	0xbd5cac30	-0.05387515
30	0xbbf9223a	-0.007602957
31	0xbae8db99	-0.001776564
32	0xbda4ff86	-0.0805655
33	0xc01858a4	-2.3804102
34	0x3ff7dfd4	1.9365182
35	0x3f1c37b6	0.6102251
36	0xc0556020	-3.333992
37	0x3feaf16b	1.8354925
38	0xbfe0dfa5	-1.7568251
39	0xbf99f204	-1.2026982
40	0x3f8b1f06	1.0868843
41	0x3f87e544	1.0616841
42	0x40300f21	2.7509234
43	0xbea1ae06	-0.31578082
44	0xbe94c46a	-0.29056102
45	0x3de1a5c2	0.11017944
46	0xbf6e45c7	-0.9307522
47	0xc000e2f1	-2.0138514
48	0x3e702b20	0.23453951
49	0xbf231289	-0.6370016
50	0x3f10f848	0.5662885
51	0xbf32a4ab	-0.69782513
52	0x3ee72d5f	0.45151803
53	0xbfe06f7d	-1.7534024
54	0xbf8a8385	-1.0821387
55	0x3faa5068	1.3305788
56	0xc007d5d3	-2.1224258
57	0x3ea8a28c	0.32936513
58	0x3fe7c148	1.810586
59	0x3f6be9ca	0.9215361
60	0x3eaf5528	0.34244657
61	0x3fb936e0	1.4469872
62	0x3efacc16	0.4898383
63	0xbf3e9e4d	-0.744603
64	0x3e44a94d	0.19205208
65	0xbf8071e4	-1.0034757
66	0x3f14c56e	0.58113754
67	0x3ec114ad	0.37711087
68	0x3f02200f	0.5083017
69	0x3ecbca9d	0.3980302
70	0xbe8a414c	-0.27002943
71	0xbcfe1a93	-0.031018531
72	0xbe8d8d73	-0.2764698
73	0x3e300bc2	0.17191985
74	0xbe85dc2b	-0.26144537
75	0x3f2e6a3d	0.68130857
76	0x3ebfe7fd	0.3748168
77	0xbe28fbfd	-0.16502376
78	0x3eb82d8b	0.35972247
79	0xbee8530b	-0.45375857
80	0xbe5638a9	-0.20920052
81	0xbe226ace	-0.15861055
82	0x3e98917c	0.29798496
83	0xbebedb1b	-0.3727654
84	0x3ebc103f	0.36731145
85	0x3ecd843f	0.40139958
86	0xbe78efc8	-0.2431022
87	0xbe6b98ca	-0.23007503
88	0xbeafe81b	-0.3435677
89	0xbe8c2974	-0.27375376
90	0x3d3dac01	0.046306614
91	0xbd8936c3	-0.06699898
92	0x3e2b46ec	0.16726273
93	0xbe2e5880	-0.17025948
94	0xbce7f507	-0.02831508
95	0xbdf9c0ed	-0.12195001
96	0xbde5edd4	-0.11227003
97	0xbe49fbb0	-0.19724917
98	0xbd652566	-0.05594387
99	0xbf2798dd	-0.65467626
100	0xbb94484d	-0.0045252205
101	0x3f2ce1ac	0.6753185
102	0xbedd006c	-0.43164384
103	0x3d139be5	0.036037344
104	0x3dff2560	0.124583006
105	0xbf0d2416	-0.5513319
106	0x3e653c37	0.22386251
107	0xbe901e9a	-0.28148347
108	0x3f1895c7	0.5960354
109	0xbc1c66f3	-0.009546029
110	0xbd30bd8c	-0.043149516
111	0x3e7cce9f	0.24688195
112	0x3d89062c	0.0669063
113	0xbe2b97b1	-0.16757084
114	0xbe3cba1d	-0.18430372
115	0x3e2a5676	0.16634545
116	0x3dd78a42	0.105244175
117	0x3e7229e9	0.236488
118	0x3f00bba8	0.5028634
119	0xbe519f19	-0.20470847
120	0xbf06d3c7	-0.52666897
121	0xbd801604	-0.06254199
122	0xbe21927b	-0.15778534
123	0x3e897c61	0.26852706
124	0x3d81a12f	0.063295715
125	0x3be3e3ce	0.0069546467
126	0x3d88ef90	0.06686318
127	0xbbf6589f	-0.0075178887
128	0xbe9eb293	-0.30995616
129	0x3d82493f	0.06361627
130	0xbd009d08	-0.031399757
131	0xbe09ea4d	-0.13468285
132	0xbdcb5a84	-0.09929374
133	0xbd95a258	-0.07306355
134	0x3c6fac98	0.014628552
135	0xbd9ec0c5	-0.077516116
136	0xbd814940	-0.063127995
137	0x3d4ebc11	0.050472323
138	0x3d46fe6d	0.048582483
139	0x3c8cf328	0.01720579
140	0xbddb2a8e	-0.10701476
141	0x3d815b0d	0.06316195
142	0xbd725fa4	-0.05917324
143	0x3bed607a	0.007244167
144	0xbe10821e	-0.14112136
145	0x3cfa4ad9	0.030553268
146	0xbe285cc7	-0.16441642
147	0xbd4fdbc5	-0.050746698
148	0x3d7b1f5e	0.06130921
149	0xbdc4edf6	-0.096157
150	0x3cb428f6	0.021992188
151	0xbdcf51bb	-0.10123011
152	0xbe3abff6	-0.1823729
153	0xbc5e1896	-0.013555666
154	0xbe1e8cbd	-0.15483375
155	0xbd7f87b4	-0.062385276
156	0xbd6c124a	-0.05763463
157	0xbd89cd0f	-0.06728565
158	0xbdb7de50	-0.089779496
159	0x3d2df811	0.042472903
160	0xbdb536a4	-0.088483125
161	0xbdbd03a9	-0.09229214
162	0xbe1f1326	-0.15534648
163	0xbe3fdec8	-0.18737328
164	0xbc049b02	-0.008093597
165	0xbdbee1e9	-0.09320433
166	0xbca740c1	-0.02041662
167	0xbe4de006	-0.2010499
168	0xbe87c55a	-0.26517755
169	0xbe6ce1b6	-0.23132977
170	0xbd983945	-0.07432798
171	0x3c6df20c	0.0145230405
172	0xbdcbe666	-0.099560544
173	0xbe209f96	-0.15685877
174	0x3d313983	0.043267738
175	0x3c8d37d8	0.017238542
176	0xbdcf9038	-0.101349294
177	0xbe192e63	-0.14959101
178	0xbd6693eb	-0.05629341
179	0xbd21786f	-0.039421495
180	0xbbd0fe86	-0.006377998
181	0xbd322c46	-0.043499254
182	0xbd5c0343	-0.053714048
183	0xbe3c11d6	-0.18366179
184	0xbe2c7d15	-0.1684459
185	0xbe2f8582	-0.17140773
186	0x3d786b2a	0.060649075
187	0xbe8a2958	-0.26984668
188	0xbe4429ef	-0.19156621
189	0xb980ed55	-0.0002459089
190	0xbe26cb81	-0.16288568
191	0x3cfadba5	0.030622313
192	0xbe1c55b8	-0.15267074
193	0xbcda6c63	-0.026663011
194	0xbc13e371	-0.009026394
195	0xbcad38a4	-0.021145172
196	0xbd2f29ef	-0.0427646
197	0xbdfd497d	-0.123675324
198	0x3e202e0e	0.15642568
199	0x3daff19b	0.085910045
200	0xbe2d7fbe	-0.16943261
201	0x3de087db	0.109634124
202	0x3ce57d29	0.028013783
203	0xbd5329f8	-0.051553696
204	0x3c347518	0.011014245
205	0xbe461d18	-0.19347036
206	0xbe020ba1	-0.12699749
207	0xbd5e1b9e	-0.054225557
208	0x3dd6cec7	0.104886584
209	0xbe178739	-0.14797677
210	0xbd06614c	-0.032807633
211	0x3ca06061	0.019577207
212	0xbe5c4908	-0.21512234
213	0xbdd2b4a4	-0.10288361
214	0x3d815c57	0.063164406
215	0xbddefc54	-0.108879715
216	0x3d6575ac	0.056020424
217	0xbe24432e	-0.16041252
218	0xbe0c841f	-0.13722275
219	0xbd9ac848	-0.07557732
220	0xbda2e646	-0.079540774
221	0xbd505b0a	-0.05086807
222	0xbdb456cc	-0.08805618
223	0xbe03d4b6	-0.12874112
224	0xbd58cc52	-0.05292923
225	0xbe4aef47	-0.1981784
226	0x3c5d0733	0.013490486
227	0xbe25b204	-0.16181189
228	0xbdd109c4	-0.10206941
229	0xbdebf995	-0.11522213
230	0x3d02735e	0.031848304
231	0x3e6e2c32	0.23259047
232	0x3db6154c	0.08890781
233	0x3f8473d6	1.034785
234	0x3e145af7	0.14487825
235	0xbe55995a	-0.2085928
236	0xbcab7493	-0.02092961
237	0xbdb6ec0c	-0.08931741
238	0x3d603f1d	0.05474769
239	0x3e397b17	0.18113361
240	0x3f2f93db	0.68584985
241	0x3e9047f3	0.28179893
242	0x3ebf460c	0.3735813
243	0x3ef46fff	0.47741696
244	0x3b9b2a14	0.0047352407
245	0xbdecaad3	-0.1155602
246	0x3dfb8a6f	0.122822635
247	0x3e53f199	0.20697631
248	0x3d11837e	0.03552579
249	0x3e484689	0.19558157
250	0x3e9ed903	0.31024942
251	0xbd5b0d2b	-0.053479355
252	0xbebe4c09	-0.37167385
253	0xbde1bc3e	-0.110222325
254	0xbe268ad1	-0.16263892
255	0x3e30f115	0.17279465

fc1.bias f4 [128]
0	0x3d66d2a5	0.05635323
1	0x3f95b172	1.1694777
2	0x3ecff307	0.40615103
3	0x3f2096d0	0.6273012
4	0xbe810c61	-0.25204757
5	0xbc3508df	-0.011049478
6	0xbe80653b	-0.25077233
7	0x3ee4482f	0.44586322
8	0xbe3b634d	-0.18299599
9	0x3f421dec	0.7582691
10	0x3f360ad2	0.7111026
11	0x3ed6a4e5	0.4192268
12	0x3f0c9009	0.5490728
13	0x3ece6da8	0.40318036
14	0x3f532b3e	0.8248786
15	0x3ee3ef1f	0.44518372
16	0x3f2f2ed6	0.6843084
17	0xbe49a4f5	-0.19691832
18	0x3f73201c	0.9497087
19	0x3f1ac620	0.60458565
20	0x3edc51fc	0.430313
21	0x3f3ce01a	0.7377945
22	0x3f5da3ba	0.8657795
23	0x3f275245	0.6535991
24	0x3ecc3ed3	0.3989168
25	0x3f1b0380	0.60552216
26	0xbe59b418	-0.21260107
27	0x3d11ed2a	0.035626568
28	0x3f6cb264	0.924597
29	0x3eeac1b1	0.458509
30	0xbd97cd4b	-0.074122034
31	0x3f738fb3	0.9514114
32	0x3ef1221b	0.47096333
33	0x3f0d00ef	0.5507955
34	0x3f1b5a43	0.60684603
35	0x3f68aa78	0.90885115
36	0x3f161c08	0.5863652
37	0x3c21e948	0.009882279
38	0x3ee354f1	0.44400743
39	0x3f38d97e	0.72206867
40	0xbe292fff	-0.16522215
41	0x3eee7701	0.46575168
42	0xbe109030	-0.14117503
43	0x3f342cbf	0.7038078
44	0x3f56045a	0.8360039
45	0x3f14fb78	0.5819621
46	0x3f1110a4	0.56666017
47	0xbc56508b	-0.013080726
48	0x3f2443e9	0.6416612
49	0x3f392c1e	0.7233294
50	0x3f099f82	0.53759015
51	0xbe0bd5cd	-0.13655777
52	0x3f08f3a1	0.5349675
53	0x3f43a968	0.7643037
54	0xbd9c7cec	-0.076410145
55	0x3f506b18	0.8141341
56	0x3ed337f8	0.41253638
57	0x3eb3ea2d	0.351396
58	0x3e64ad57	0.22331749
59	0x3f35408c	0.70801616
60	0x3d6a2fae	0.057174377
61	0x3f4cbdcd	0.79977113
62	0x3ef77feb	0.4833978
63	0x3f3e9dee	0.7445973
64	0x3ec46fef	0.3836665
65	0x3ee24d6f	0.44199702
66	0x3f1e671d	0.6187609
67	0xbd8cdf98	-0.068785846
68	0x3f01b1c0	0.5066185
69	0xbd7fba03	-0.062433254
70	0x3ee635bc	0.4496287
71	0x3f6b48f0	0.9190817
72	0x3f2e92d5	0.681928
73	0xbd6e60b7	-0.058197703
74	0x3ece495a	0.40290338
75	0xbe46076d	-0.1933877
76	0xbe40deb8	-0.1883496
77	0x3f05ee47	0.5231671
78	0x3f18e8ca	0.5973021
79	0x3d5c628d	0.053804923
80	0x3d901a2d	0.07036243
81	0x3f1b613f	0.6069526
82	0x3f81c7cb	1.0139097
83	0x3ee70d5d	0.45127383
84	0x3f2b775f	0.6697902
85	0xbe4d9d13	-0.2007945
86	0x3ee0df5f	0.4392042
87	0x3f04a9af	0.51821417
88	0xbe684cc5	-0.22685535
89	0x3f2548b4	0.6456406
90	0x3f1fe54b	0.6245925
91	0xbe29de8e	-0.16588804
92	0x3f01a0cb	0.50635976
93	0x3f00a347	0.5024914
94	0xbe28af7e	-0.16473195
95	0x3f2f8b33	0.68571776
96	0x3eb7f720	0.3593073
97	0xbe446acb	-0.19181363
98	0x3f037070	0.5134344
99	0x3eca0b84	0.3946191
100	0x3ec0ac22	0.37631327
101	0x3ec57e90	0.38573122
102	0x3f2812f7	0.6565394
103	0x3f088ee1	0.53343016
104	0x3ed46d15	0.41489473
105	0x3ebd1fb1	0.3693824
106	0x3f23d9e4	0.6400435
107	0x3c628c32	0.0138273705
108	0x3f334a6b	0.7003543
109	0x3f29fdf7	0.66403145
110	0x3f401b1f	0.75041384
111	0x3f078413	0.52935904
112	0x3f2dd58a	0.6790396
113	0xbe441c6b	-0.19151466
114	0x3d89b45b	0.06723853
115	0x3ee50b2f	0.44735095
116	0x3eb447ab	0.35210928
117	0xbe69e2c0	-0.22840405
118	0x3f1b23fb	0.60601777
119	0x3ef03b76	0.46920365
120	0x3ed3f2fd	0.41396323
121	0x3f28bdde	0.65914714
122	0x3f13da99	0.5775543
123	0x3f02e3fb	0.5112912
124	0x3eb0a639	0.34501818
125	0xbe3c149d	-0.18367238
126	0x3f4acfab	0.79223126
127	0x3f866da2	1.0502207

fc2.weight f4 [1, 128]
0	0x3b010237	0.0019685158
1	0x3fe067af	1.7531642
2	0x3ec048a7	0.3755543
3	0x3e881d6f	0.26584956
4	0x3d241edb	0.04006849
5	0x3d72652c	0.059178516
6	0x3d4002c7	0.04687765
7	0x3e41491f	0.1887555
8	0x3d1a6e2e	0.03770273
9	0x3f4a001c	0.78906417
10	0x3eba184b	0.3634666
11	0x3ea00fe1	0.31262115
12	0x3e4867d2	0.19570854
13	0x3db14619	0.08655948
14	0x3f1ce956	0.6129354
15	0x3e3e59f2	0.18588999
16	0x3e979892	0.2960859
17	0x3d8acc87	0.06777292
18	0x3f90b090	1.1303883
19	0x3e336581	0.1751919
20	0x3dfef9df	0.12450003
21	0x3e9e999c	0.3097657
22	0x3f9dfe46	1.2343223
23	0x3e65621b	0.22400706
24	0x3e7e1e69	0.24816288
25	0x3dc43abd	0.09581516
26	0xbbbcb4c5	-0.005758854
27	0x3ddacd81	0.10683728
28	0x3f16a1a2	0.5884038
29	0x3e88a1ae	0.26685852
30	0x3d042b3f	0.032267805
31	0x3f80b023	1.0053753
32	0x3e74b968	0.23898852
33	0x3e9a504a	0.3013938
34	0x3e8877d8	0.26653934
35	0x3f366cb9	0.7125965
36	0x3ed1161c	0.4083718
37	0x3d83416c	0.064089626
38	0x3e1d11b0	0.15338778
39	0x3f258dbf	0.6466941
40	0x3cfafead	0.030639017
41	0x3e3a2b88	0.18180668
42	0x3ec45e9f	0.3835344
43	0x3e5ea154	0.2174123
44	0x3f121ef1	0.5707846
45	0x3eca7f4d	0.39550248
46	0x3e321dcc	0.17394179
47	0x3cff7536	0.03118382
48	0x3e1e1349	0.15437044
49	0x3f4817f7	0.7816157
50	0x3dc844c2	0.097787395
51	0x3e4ec136	0.20190892
52	0x3de25119	0.110506244
53	0x3ecf02d7	0.40431854
54	0x3ccd6995	0.02507476
55	0x3f3978fb	0.72450227
56	0x3e5b7959	0.21433009
57	0x3d9f2e16	0.07772462
58	0x3e1334d5	0.14375623
59	0x3f0bbfd0	0.5458956
60	0x3ca8942a	0.020578463
61	0x3f3e1c59	0.74262005
62	0x3e560197	0.20899044
63	0x3f532ae1	0.82487303
64	0x3e656d7f	0.2240505
65	0x3e430e31	0.19048382
66	0x3e5813f2	0.21101359
67	0x3d81f524	0.06345585
68	0x3eb2d4f0	0.34928083
69	0x3ce1f426	0.02758224
70	0x3e3a1b36	0.18174443
71	0x3fb37ab7	1.4021825
72	0x3e414d4f	0.18877147
73	0x3d97c6e6	0.07410984
74	0x3e4a9af3	0.19785671
75	0x3d69e659	0.057104442
76	0x3c8d52f2	0.017251465
77	0x3e9d88a4	0.3076831
78	0x3e4873d7	0.1957544
79	0x3d015aa5	0.031580586
80	0x3c4ab363	0.012371871
81	0x3df95e12	0.121761456
82	0x3f5faf07	0.87376446
83	0x3e0ef80d	0.13961811
84	0x3f2c88b7	0.6739611
85	0x3dd70726	0.1049941
86	0x3eb11fe2	0.34594637
87	0x3e22756c	0.15865105
88	0x3d7c8ad5	0.061655838
89	0x3e8bd038	0.27307296
90	0x3f307931	0.68934923
91	0x3d37c250	0.044863045
92	0x3eb3cfb0	0.3511939
93	0x3e721d6d	0.23644038
94	0x3d3edae9	0.046595488
95	0x3e98d2e1	0.29848388
96	0x3e81f0f8	0.25379157
97	0x3d570e09	0.05250362
98	0x3f05fd2b	0.5233943
99	0x3e824a80	0.25447464
100	0x3e243efa	0.16039649
101	0x3e219623	0.15779929
102	0x3eab639c	0.33474433
103	0x3e73a03f	0.23791598
104	0x3e3cb020	0.18426561
105	0x3ea615bb	0.32438454
106	0x3eb0b11e	0.3451013
107	0x3d08b7d1	0.033378426
108	0x3e85ab1d	0.26107112
109	0x3e83ad9a	0.25718385
110	0x3f01cf42	0.50706875
111	0x3e404954	0.18777972
112	0x3e54c871	0.20779587
113	0x3d768eb2	0.06019468
114	0x3b63354c	0.0034669219
115	0x3e9111f0	0.28333998
116	0x3e7eb1b4	0.24872476
117	0x3961557a	0.00021489515
118	0x3e6bce7b	0.23027985
119	0x3e2c32bd	0.1681623
120	0x3e296192	0.16541126
121	0x3f16a56d	0.5884617
122	0x3e819aa5	0.25313297
123	0x3e380785	0.17971618
124	0x3e0f1d00	0.13975906
125	0x3c3681df	0.011139362
126	0x3f3417ca	0.703488
127	0x3fc6448d	1.548967
