weights/fox/critic.pth (torch, 19784 bytes, 3 tensors)

fc1.weight f4 [128, 33]
-9.745042 -7.1969385 -10.937625 -9.67514 -10.00242 -12.907857 -8.016823 -2.9810438
-7.702848 5.1329174 -9.171487 -10.809055 -5.930499 -0.8776324 2.6252441 -8.011907
-1.7558836 -6.7641244 -7.0895905 0.4183725 -4.0640197 -9.431904 -8.998857 -23.074533
-10.003529 -20.786665 -3.9851382 -8.893102 -20.255241 -9.79393 0.95668495 -10.210961
-5.684515 -0.15607284 -0.046456616 -0.24514443 -0.24436958 -0.09192804 -0.050550025 -0.051142972
-0.16851588 -0.22816971 -0.007251685 -0.039939493 -0.18766735 -0.06335276 0.012162844 -0.27002934
-0.16122115 -0.041290972 -0.070281334 -0.051843084 -0.19106159 -0.19027478 -0.10815282 -0.209966
-0.047193434 -0.08748251 -0.23239075 -0.100605786 -0.011375278 -0.12016172 -0.061469596 -0.11357778
0.024855359 -0.017685903 -7.5361576 -6.693378 -7.2609763 -7.0317583 -10.045491 -5.338949
-1.798439 -13.464877 -12.044472 -5.1209364 -7.950113 -0.8801272 -5.2313857 -11.225928
-11.342245 -8.68108 -10.241783 -8.944967 -2.3240929 -9.178227 0.7363618 -1.8385401
-6.921994 -1.3255148 -20.695791 -1.5826772 4.383341 -12.855945 -15.364943 -8.358158
-9.629258 -17.397356 -13.455753 44.087578 56.89179 45.587433 34.043365 60.40398
78.51828 53.477684 67.20257 65.29669 87.36459 75.025024 40.457024 68.44516
9.628005 81.36433 61.852863 37.202526 47.90923 62.824028 32.35184 67.62625
46.31843 55.70344 16.0293 69.82834 25.444355 71.78004 40.59969 37.692688
57.6116 83.54723 104.51429 47.211426 2.2977273 1.7042172 3.5903182 1.991335
2.8517385 3.7604845 4.991512 4.6876307 1.4794221 3.3308032 6.4216094 1.8112999
5.063071 10.253399 -0.6892942 -0.17156065 1.9105293 1.7830414 4.5194325 3.5890675
10.768968 4.655224 2.3970008 2.6128986 3.9648366 7.451078 1.4117041 -2.4847698
11.900597 2.5713985 13.89931 3.3543313 15.0794735 -6.957747 0.101532966 -1.2632353
-3.6174562 -9.395966 -9.324369 -8.031719 -12.004715 -10.678688 -6.5687604 -9.545087
-0.7808826 -2.483555 3.3176606 -1.46176 2.302983 -4.532166 -5.3102913 -2.0682616
-2.719295 -0.45163026 -13.1581745 -11.386512 -8.397792 -4.1123095 -8.035401 3.067931
-2.3236291 2.9120257 -6.146072 -7.2520633 -11.637735 -10.127079 -0.06509043 -0.123501845
-0.23701064 -0.11486775 -0.054931086 -0.118498735 -0.27202046 -0.09279895 -0.2784778 -0.28659895
-0.21066979 -0.13154985 -0.13541894 -0.09637959 -0.33677042 -0.16698793 -0.18136558 -0.09995816
-0.2539784 -0.14853342 -0.049918134 -0.18975957 -0.09602178 -0.15975846 -0.10195307 -0.09882835
0.04545785 -0.25856572 -0.17544703 -0.32076642 -0.22643396 -0.12087587 -0.10960502 -3.7428706
3.5192142 -3.7771978 -18.685663 -11.795589 -1.3939042 -5.4763794 -1.4824494 -2.6384695
-5.1643353 -3.4687681 -10.3507185 -13.271753 -11.053222 -0.2563634 -7.645988 -9.171538
-9.0360775 -9.641171 -9.759755 -4.5295615 -13.783804 -16.88122 -3.128967 -4.252312
00000000: b1eb 1bc1 524d e6c0 8300 2fc1 60cd 1ac1
00000010: ea09 20c1 9586 4ec1 e844 00c1 6cc9 3ec0
00000020: bb7d f6c0 dc40 a440 69be 12c1 e4f1 2cc1
00000030: a6c6 bdc0 84ac 60bf 0004 2840 c530 00c1
00000040: cbc0 e0bf b573 d8c0 eddd e2c0 ec34 d63e
00000050: 730c 82c0 14e9 16c1 51fb 0fc1 a598 b8c1
00000060: 740e 20c1 174b a6c1 810c 7fc0 254a 0ec1
00000070: bc0a a2c1 f0b3 1cc1 4ee9 743f 1960 23c1
00000080: 8ce7 b5c0 8fd1 1fbe 4b49 3ebd 2407 7bbe
00000090: 053c 7abe c544 bcbd 8b0d 4fbd 4b7b 51bd
000000a0: 6d8f 2cbe 52a5 69be 8b9f edbb 9897 23bd
000000b0: df2b 40be 18bf 81bd aa46 473c 4941 8abe
000000c0: 2817 25be b920 29bd a9ef 8fbd 6a59 54bd
000000d0: a6a5 43be 64d7 42be 3a7f ddbd 5401 57be
000000e0: e74d 41bd 082a b3bd d7f7 6dbe 680a cebd
000000f0: 605f 3abc 5917 f6bd 8bc7 7bbd 789b e8bd
00000100: 779d cb3c 07e2 90bc 3428 f1c0 2730 d6c0
00000110: eb59 e8c0 2a04 e1c0 55ba 20c1 acd8 aac0
00000120: 4033 e6bf 2370 57c1 28b6 40c1 b6de a3c0
00000130: 5367 fec0 0450 61bf 8367 a7c0 679d 33c1
00000140: d679 35c1 b4e5 0ac1 58de 23c1 961e 0fc1
00000150: f0bd 14c0 05da 12c1 3582 3c3f 4855 ebbf
00000160: fa80 ddc0 78aa a9bf fb90 a5c1 2b95 cabf
00000170: 5444 8c40 f3b1 4dc1 ced6 75c1 04bb 05c1
00000180: 7111 1ac1 c92d 8bc1 c44a 57c1 ae59 3042
00000190: 3191 6342 8859 3642 682c 0842 ad9d 7142
000001a0: 5c09 9d42 26e9 5542 b767 8642 e897 8242
000001b0: acba ae42 d00c 9642 fed3 2142 ece3 8842
000001c0: 4f0c 1a41 89ba a242 5569 7742 63cf 1442
000001d0: 0da3 3f42 ce4b 7b42 4968 0142 a440 8742
000001e0: 1346 3942 53d0 5e42 023c 8041 1ca8 8b42
000001f0: 0a8e cb41 618f 8f42 1566 2242 50c5 1642
00000200: 4772 6642 2f18 a742 5107 d142 80d8 3c42
00000210: f70d 1340 ca23 da3f c6c7 6540 11e4 fe3f
00000220: e282 3640 c7ab 7040 77ba 9f40 1201 9640
00000230: b45d bd3f e12b 5540 d37d cd40 add8 e73f
00000240: ad04 a240 ec0d 2441 9675 30bf 98ad 2fbe
00000250: 398c f43f b33a e43f 319f 9040 48b3 6540
00000260: b14d 2c41 98f7 9440 7668 1940 bb39 2740
00000270: e2bf 7d40 3b6f ee40 b8b2 b43f 7806 1fc0
00000280: d868 3e41 cb91 2440 9363 5e41 5dad 5640
00000290: 8645 7141 dda5 dec0 84f0 cf3d b2b1 a1bf
000002a0: 6784 67c0 e055 16c1 9e30 15c1 ec81 00c1
000002b0: 5013 40c1 e8db 2ac1 4933 d2c0 adb8 18c1
000002c0: ece7 47bf 91f2 1ec0 8d54 5440 f41a bbbf
000002d0: 1364 1340 8107 91c0 e8ed a9c0 665e 04c0
000002e0: ee08 2ec0 153c e7be e287 52c1 272f 36c1
000002f0: 5b5d 06c1 0a98 83c0 0191 00c1 fb58 4440
00000300: 57b6 14c0 a15e 3a40 9fac c4c0 e710 e8c0
00000310: 2a34 3ac1 8408 22c1 224e 85bd 89ee fcbd
00000320: ebb2 72be c83f ebbd 6bff 60bd 77af f2bd
00000330: 4446 8bbe 600d bebd a494 8ebe 19bd 92be
00000340: d2b9 57be 01b5 06be 43ab 0abe aa62 c5bd
00000350: 2c6d acbe e2fe 2abe e6b7 39be ddb6 ccbd
00000360: 7509 82be 2519 18be f576 4cbd 5550 42be
00000370: 11a7 c4bd b997 23be c5cc d0bd 8566 cabd
00000380: 0332 3a3d ba62 84be 63a8 33be 7f3b a4be
00000390: 4ede 67be c58d f7bd 9978 e0bd 318b 6fc0
000003a0: ce3a 6140 9cbd 71c0 3d7c 95c1 bcba 3cc1
000003b0: 746b b2bf 803e afc0 e7c0 bdbf afdc 28c0
000003c0: 3c42 a5c0 4c00 5ec0 8b9c 25c1 1a59 54c1
000003d0: ffd9 30c1 1042 83be efab f4c0 9fbe 12c1
000003e0: c693 10c1 3d42 1ac1 f527 1cc1 2bf2 90c0
000003f0: 768a 5cc1 bd0c 87c1 ff40 48c0 f112 88c0

fc1.bias f4 [128]
-13.087976 -0.046004917 -1.6649516 -56.57441 -159.05223 -24.68238 -0.30336508 -0.27399868
-20.234797 -16.21038 -43.583885 -30.425037 0.7346757 -47.102173 -31.836626 2.2565575
-33.73645 -0.31233373 -3.3826804 -35.04931 -4.1963744 -14.449219 -23.964878 -26.627434
-8.21324 -0.12932211 -20.214863 8.663602 -6.262055 -40.838707 -25.831888 -24.819893
-35.991695 -28.58146 -12.762482 -0.25622767 -34.63578 -3.9056983 -33.753334 -2.9567275
-27.547937 -30.938076 0.36939126 -20.33624 -32.2589 -38.46863 -0.16715913 -6.874506
-29.573208 0.11339464 -24.31301 -8.591499 -1.1759033 -3.240744 -24.93702 -47.339195
-27.240553 -24.147963 -12.95472 -25.656464 -3.0417325 -7.662244 -2.9592633 -24.97941
-33.056553 -25.750008 -79.32093 -36.453823 4.4002943 -5.2018332 -4.726112 -17.46028
-31.859192 -0.51128775 -48.913586 -14.518793 -0.6677423 -36.32892 -22.879164 -6.819186
-29.818226 -0.2517164 -6.1180387 -0.45195475 -37.86158 -4.584579 -34.259907 -26.272993
2.2225342 -30.64656 -27.740393 -14.792961 -32.968967 -23.18048 -311.8436 -25.592314
-41.293163 -29.506365 -0.19958504 -93.96493 -0.52189356 -26.732346 -8.415021 -48.631493
-27.919546 -35.39433 -161.75467 -11.982443 -33.3421 -54.187603 -30.96716 -29.260775
-6.811925 -18.363937 -1.1565641 0.96909076 -0.33921248 -28.526657 0.62129587 -19.444029
-18.986984 -4.9905934 -0.18070354 -37.103104 -0.53815186 -16.602621 -0.6834724 -52.545403
00000000: 5a68 51c1 a76f 3cbd 221d d5bf 324c 62c2
00000010: 5f0d 1fc3 8475 c5c1 ab52 9bbe 8e49 8cbe
00000020: dde0 a1c1 dcae 81c1 e655 2ec2 7a66 f3c1
00000030: b513 3c3f a068 3cc2 69b1 fec1 706b 1040
00000040: 20f2 06c2 35ea 9fbe d67d 58c0 7e32 0cc2
00000050: b348 86c0 0030 67c1 12b8 bfc1 fc04 d5c1
00000060: 6e69 03c1 046d 04be 0ab8 a1c1 1d9e 0a41
00000070: c162 c8c0 d65a 23c2 b5a7 cec1 248f c6c1
00000080: 7ff7 0fc2 d5a6 e4c1 2033 4cc1 4630 83be
00000090: 0a8b 0ac2 f6f6 79c0 6a03 07c2 063b 3dc0
000000a0: 2d62 dcc1 2e81 f7c1 da20 bd3e 9fb0 a2c1
000000b0: 1d09 01c2 e1df 19c2 c32b 2bbe f4fb dbc0
000000c0: ee95 ecc1 733b e83d 0b81 c2c1 c876 09c1
000000d0: 0084 96bf 5a68 4fc0 047f c7c1 565b 3dc2
000000e0: a7ec d9c1 072f c1c1 8846 4fc1 7040 cdc1
000000f0: bfab 42c0 1a31 f5c0 9264 3dc0 d5d5 c7c1
00000100: e939 04c2 0400 cec1 51a4 9ec2 b7d0 11c2
00000110: 36cf 8c40 6b75 a6c0 4f3c 97c0 a7ae 8bc1
00000120: a0df fec1 c1e3 02bf 83a7 43c2 fa4c 68c1
00000130: 29f1 2abf d050 11c2 8708 b7c1 c636 dac0
00000140: ba8b eec1 f9e0 80be f9c6 c3c0 9d66 e7be
00000150: 4272 17c2 dfb4 92c0 250a 09c2 172f d2c1
00000160: 003e 0e40 282c f5c1 53ec ddc1 f8af 6cc1
00000170: 39e0 03c2 9f71 b9c1 fbeb 9bc3 0fbd ccc1
00000180: 332c 25c2 090d ecc1 0560 4cbe 0bee bbc2
00000190: d19a 05bf d8db d5c1 eda3 06c1 a686 42c2
000001a0: 3b5b dfc1 cb93 0dc2 32c1 21c3 16b8 3fc1
000001b0: 4f5e 05c2 1bc0 58c2 bebc f7c1 1116 eac1
000001c0: 4afb d9c0 58e9 92c1 4b0a 94bf 5516 783f
000001d0: 42ad adbe 9836 e4c1 3f0d 1f3f 5f8d 9bc1
000001e0: 58e5 97c1 f1b2 9fc0 590a 39be 9469 14c2
000001f0: 52c4 09bf 2bd2 84c1 0cf8 2ebf 7e2e 52c2

fc2.weight f4 [1, 128]
-22.83668 0.031336933 -31.838898 0.7454397 -15.435536 32.44748 -0.27233145 -22.080519
8.022196 2.8296237 12.106207 17.761642 -32.80406 13.377297 13.841714 -41.601803
6.9901786 -0.29188594 -27.7442 12.451742 -14.762736 5.054414 10.750856 14.515383
-12.71469 -25.390821 -21.809769 -20.375305 -27.97773 4.172896 34.57505 10.6288
13.207357 20.191633 -25.005758 -21.681555 18.11822 -30.181486 -16.135231 -24.410303
-10.986091 18.880154 -23.275066 11.023438 15.538595 25.86088 -0.015744217 -34.70701
22.28803 -22.709726 22.126202 -24.971218 -0.36557558 -22.411985 -18.308903 26.40624
17.847166 20.490168 -29.206617 15.98626 -2.5629237 -17.849888 -23.434927 12.036408
17.999823 13.123065 -9.023464 17.9831 -32.595898 -23.168566 -27.524586 4.7597795
12.404505 -0.27023932 -20.117266 14.314974 -34.495823 22.395094 11.391732 3.6022077
11.553815 0.03947649 -20.153952 -0.27775216 22.240042 -10.881327 17.609396 14.362683
-21.693958 18.934858 14.174651 13.171725 11.640723 25.37479 1.9767812 21.83074
24.408833 19.266972 -0.03269279 -22.071896 -0.2609452 29.618263 -26.711502 -3.7643182
18.637169 22.75825 -0.42075008 6.1595125 17.924984 10.084333 24.427404 8.999185
-25.27701 3.274625 -16.590223 -22.119465 -0.26499674 15.9227705 -10.3998785 23.196404
11.871934 -27.736216 0.03609447 26.075844 -8.486767 5.303614 0.2950245 19.235067
00000000: 85b1 b6c1 285b 003d 10b6 fec1 23d5 3e3f
00000010: f5f7 76c1 38ca 0142 076f 8bbe e7a4 b0c1
00000020: ea5a 0041 8e18 3540 06b3 4141 d817 8e41
00000030: 5c37 03c2 6909 5641 a977 5d41 3f68 26c2
00000040: 8baf df40 1372 95be 1ff4 ddc1 563a 4741
00000050: 2b34 6cc1 c2bd a140 8203 2c41 023f 6841
00000060: 5f6f 4bc1 6720 cbc1 687a aec1 a000 a3c1
00000070: 64d2 dfc1 5d88 8540 da4c 0a42 910f 2a41
00000080: 5651 5341 7788 a141 cb0b c8c1 d373 adc1
00000090: 1df2 9041 af73 f1c1 f414 81c1 4d48 c3c1
000000a0: 07c7 2fc1 8e0a 9741 5633 bac1 0160 3041
000000b0: 169e 7841 15e3 ce41 04fa 80bc fad3 0ac2
000000c0: e34d b241 85ad b5c1 7602 b141 0ec5 c7c1
000000d0: b92c bbbe bf4b b3c1 a278 92c1 fb3f d341
000000e0: ffc6 8e41 ddeb a341 27a7 e9c1 b9c7 7f41
000000f0: f106 24c0 92cc 8ec1 bb7a bbc1 2195 4041
00000100: a3ff 8f41 13f8 5141 1c60 10c1 64dd 8f41
00000110: 3362 02c2 3959 b9c1 5a32 dcc1 1d50 9840
00000120: da78 4641 cf5c 8abe 29f0 a0c1 220a 6541
00000130: b9fb 09c2 2729 b341 8944 3641 928a 6640
00000140: 6ddc 3841 1ab2 213d 4b3b a1c1 8835 8ebe
00000150: 9beb b141 ea19 2ec1 0be0 8c41 8dcd 6541
00000160: 3a8d adc1 977a 9741 5fcb 6241 63bf 5241
00000170: 6740 3a41 92ff ca41 2b07 fd3f 5ba5 ae41
00000180: 4a45 c341 c222 9a41 e0e8 05bd 3e93 b0c1
00000190: 9c9a 85be 34f2 ec41 28b1 d5c1 97ea 70c0
000001a0: ec18 9541 e510 b641 8e6c d7be ba1a c540
000001b0: 5e66 8f41 6e59 2141 536b c341 a9fc 0f41
000001c0: 5137 cac1 7593 5140 c7b8 84c1 aaf4 b0c1
000001d0: a7ad 87be abc3 7e41 e765 26c1 3c92 b941
000001e0: 71f3 3d41 c5e3 ddc1 ccd7 133d 549b d041
000001f0: ccc9 07c1 35b7 a940 740d 973e 6be1 9941
