weights/goose/actor.pth (torch, 81152 bytes, 4 tensors)

fc1.weight f4 [128, 33]
0	0x3c34610f	0.011009469
1	0xbd9b95a2	-0.075968996
2	0xbdca38ab	-0.0987409
3	0x3ce88fd1	0.02838889
4	0x3e17c58d	0.14821453
5	0x3e000502	0.1250191
6	0xbdebd9ea	-0.11516173
7	0xbd06524f	-0.03279334
8	0xbd2496df	-0.040182944
9	0xbe29d745	-0.16586025
10	0x3d8c4bd9	0.06850404
11	0xbdf410a6	-0.11917238
12	0x3dd49abb	0.10381075
13	0x3e219f3d	0.15783401
14	0x3e17b28f	0.14814208
15	0xbdd426b6	-0.10358946
16	0xbda2bc9b	-0.0794613
17	0xbd9390d2	-0.07205357
18	0x3e105db6	0.14098248
19	0xbe1c5f53	-0.15270738
20	0x3e124d3f	0.1428728
21	0x3ca1045a	0.019655395
22	0xbe009eaa	-0.12560526
23	0x3cd45e8c	0.02592399
24	0xbe0a48a5	-0.13504274
25	0x3d1a3744	0.03765036
26	0x3d4f440a	0.050601996
27	0xbdc25bd5	-0.09490172
28	0xbca251b6	-0.019814353
29	0xb96b2606	-0.00022425511
30	0xbc49ce58	-0.012317263
31	0xbd161be0	-0.036647677
32	0xbe12a79d	-0.14321752
33	0x3e1beddd	0.15227456
34	0x3c4a3925	0.012342726
35	0x3cf337c7	0.029689683
36	0x3cdada9e	0.026715573
37	0x3ce371b4	0.027764179
38	0xbd982c8c	-0.07430372
39	0x3dddb9ca	0.10826452
40	0x3dbc428a	0.09192379
41	0xbcf626de	-0.03004783
42	0xbd46b5e2	-0.0485133
43	0x3d5dedef	0.05418199
44	0xbda0ec96	-0.07857625
45	0xbc93a47d	-0.01802277
46	0xbdbbfaff	-0.09178733
47	0xbd9b76cf	-0.0759102
48	0x3db8d4da	0.09024973
49	0x3dba7b77	0.0910558
50	0x3e1e3b71	0.15452363
51	0xbd32aa91	-0.043619696
52	0x3e20b240	0.15692997
53	0xbd715d92	-0.058927126
54	0xbe234ee3	-0.15948062
55	0x3df9dac5	0.1219993
56	0xbd9a4737	-0.075331144
57	0xbda14cbf	-0.07875966
58	0x3e1f4b8f	0.15556167
59	0xbe30431c	-0.172131
60	0x3d32566d	0.043539453
61	0xbc2ecee6	-0.010669446
62	0x3e2004bf	0.1562681
63	0xbd9830cb	-0.074311815
64	0x3e069449	0.13142504
65	0x3d2b3414	0.041797712
66	0x3d9d9e3c	0.076961964
67	0x3de82726	0.11335592
68	0xbe0c6130	-0.13708949
69	0xbd8a2cd8	-0.067468345
70	0x3dd70896	0.104996845
71	0xbdd91cf7	-0.10601228
72	0xbe26b8c4	-0.1628142
73	0xbd6ecd60	-0.05830133
74	0x3d95f88b	0.073227964
75	0xbc778934	-0.015108395
76	0x3d9fa678	0.07795423
77	0xbe1738eb	-0.14767806
78	0x3e07cf8a	0.13262764
79	0xbc04c493	-0.008103508
80	0x3cea3949	0.028591769
81	0xbe2b4632	-0.16725996
82	0xbdafebd0	-0.085898995
83	0xbd809691	-0.06278718
84	0x3db9f110	0.09079182
85	0xbe34164a	-0.17586628
86	0xbc01741b	-0.007901217
87	0xbe30aa7a	-0.17252532
88	0x3dd3e4c6	0.103463694
89	0x3cfb844b	0.03070273
90	0xbd2225cf	-0.03958684
91	0xbc9b9ff5	-0.018997172
92	0x3d605f66	0.05477848
93	0x3df6a811	0.12043775
94	0xba72dfdd	-0.00092649256
95	0x3dc6edae	0.097133026
96	0x3c811da5	0.015761206
97	0xbe2b0586	-0.16701326
98	0xbdffd4e2	-0.12491776
99	0x3db468b7	0.08809035
100	0x3dcbf703	0.09959223
101	0x3e1d0a2a	0.15335909
102	0xbdd875ec	-0.10569367
103	0x3e130000	0.14355469
104	0x3caad52a	0.020853598
105	0x3e38be80	0.1804142
106	0xbe0c1257	-0.13678871
107	0xbb55605d	-0.0032558658
108	0x3e20e41c	0.15712017
109	0x3cc7d59a	0.024393845
110	0x3c7fb92a	0.015608111
111	0xbe022b22	-0.12711766
112	0xbd9a7a57	-0.07542866
113	0xbe0a619e	-0.135138
114	0x3dbf8758	0.09351987
115	0xbccbfe8c	-0.02490165
116	0xbbe0563f	-0.006846219
117	0x3d96cdb3	0.07363453
118	0x3d6e529b	0.058184247
119	0xbd789c9b	-0.060696226
120	0xbded9ee8	-0.116025746
121	0xbdf236e6	-0.11826877
122	0xbd5c7986	-0.05382683
123	0x3ddc00a7	0.10742312
124	0x3e218f26	0.15777263
125	0x3dd27880	0.1027689
126	0xbc5b1657	-0.013372025
127	0xbe11f546	-0.1425372
128	0xbcab8d31	-0.020941349
129	0x3e113619	0.14180793
130	0xbd77597d	-0.060388077
131	0x391fa5f8	0.0001522525
132	0xbd769270	-0.060198247
133	0xbd09f5e4	-0.033681765
134	0x3e2d52e6	0.16926154
135	0x3e0a493e	0.13504502
136	0xbda33d91	-0.07970727
137	0x3d025c18	0.03182611
138	0xbcc21060	-0.023689449
139	0xbdad5413	-0.084633015
140	0xbcb5b5aa	-0.02218135
141	0xbd179aa2	-0.037012704
142	0xbe194672	-0.14968279
143	0xbc2d3cae	-0.010573549
144	0x3bec03cd	0.0072026015
145	0x3e21641a	0.15760842
146	0xbd8f41b3	-0.06994953
147	0x3db3a47f	0.087716095
148	0xbe401fed	-0.18762179
149	0x3d2d98a5	0.0423819
150	0x3deef4d2	0.116677895
151	0x3e3ba639	0.18325128
152	0xbe0bd713	-0.13656263
153	0xbb9d3c71	-0.004798465
154	0xbd8bc9fe	-0.06825636
155	0xbde6bb0c	-0.11266145
156	0xbe23e84c	-0.16006583
157	0x3e251bbf	0.16123866
158	0x3cf42e65	0.029807279
159	0x3d5d6457	0.05405077
160	0xbd426f3a	-0.047469355
161	0xbccb7807	-0.024837507
162	0xbd2762df	-0.040865775
163	0x3cac81b7	0.021057947
164	0x3cac3c39	0.02102481
165	0xbdaa2be1	-0.083091505
166	0xbd4bee8a	-0.049788035
167	0x3d2cb8eb	0.04216854
168	0x3dc68d67	0.09694939
169	0x3b0b427b	0.0021249342
170	0x3d1fbdb0	0.03899926
171	0xbbbb64aa	-0.005718787
172	0x3d30809a	0.043091394
173	0x3e275832	0.16342238
174	0x3e11a12e	0.14221641
175	0xbd36a441	-0.04459024
176	0xbe234211	-0.15943171
177	0x3dfa5385	0.12222961
178	0x3db854f9	0.09000582
179	0x3d180b74	0.037120298
180	0x3d85be1a	0.065303996
181	0xbcb2e87a	-0.02183937
182	0xbd8f4706	-0.069959685
183	0x3d73701e	0.059433095
184	0x3da91014	0.0825502
185	0x3e08a4fe	0.1334419
186	0xbddf0a4f	-0.10890638
187	0xbd141858	-0.03615603
188	0x3afff61d	0.0019528304
189	0x3c54234b	0.012947868
190	0xbd725004	-0.05915834
191	0xbc69e5a6	-0.014275944
192	0xbd8e460e	-0.069469556
193	0x3dc73675	0.09727184
194	0x3d94092d	0.07228313
195	0xbdcac0f7	-0.099000864
196	0xbe1dbbb3	-0.15403633
197	0xbd0ce2b7	-0.0343959
198	0xbe2aef8f	-0.16692947
199	0xbd995f52	-0.07488884
200	0x3d5a5188	0.05330041
201	0xbd67c467	-0.05658379
202	0xbda30d71	-0.07961548
203	0x3e290632	0.1650627
204	0x3d2a8ee9	0.041640196
205	0x3d00121c	0.03126727
206	0xbde41b8a	-0.11138065
207	0x3e1825f9	0.14858235
208	0x3e22d94b	0.15903203
209	0x3e27c835	0.16384967
210	0xbe2b4051	-0.16723754
211	0x3d03ecbe	0.032208197
212	0xbc10d79a	-0.008840466
213	0x3db3fe4a	0.08788736
214	0x3d3d23ba	0.04617665
215	0xbc245c2a	-0.010031739
216	0x3d979433	0.07401314
217	0xbe222033	-0.15832596
218	0xbe224adc	-0.15848869
219	0xbe047dae	-0.12938568
220	0x3d516048	0.05111721
221	0xbe29eae8	-0.16593516
222	0x3e1d458c	0.15358561
223	0xbe0303b7	-0.12794386
224	0x3dc17827	0.09446745
225	0xbe3113b0	-0.17292666
226	0x3c6d53ab	0.01448528
227	0x3d479fb4	0.04873629
228	0x3e057b11	0.13035227
229	0xbdaf03b1	-0.08545626
230	0xbdf8e2d0	-0.12152636
231	0x3d994c9c	0.07485315
232	0xbd9af7e6	-0.07566814
233	0xbe1bfb64	-0.15232617
234	0x3dffe9f4	0.12495795
235	0xbd78ca3c	-0.06073974
236	0x3df644cc	0.12024841
237	0x3d2a9751	0.041648213
238	0xbdcf9ab3	-0.101369284
239	0x3c47b785	0.012189751
240	0x3cf6c3ea	0.030122716
241	0xbdc9bb00	-0.098501205
242	0x3d82df84	0.063902885
243	0xbe05543b	-0.13020413
244	0xbdf438f6	-0.11924927
245	0x3e35887e	0.17727849
246	0x3dcfee56	0.10152881
247	0xbcb81828	-0.022472456
248	0x3e18fe49	0.14940752
249	0x3e3d7790	0.1850264
250	0xbdd38c2e	-0.103294715
251	0x3db9623f	0.09051942
252	0xbe176eb2	-0.1478832
253	0xbd315770	-0.043296278
254	0x3e1ee0ca	0.15515438
255	0xbd6d6437	-0.0579569

fc1.bias f4 [128]
0	0xbe169a73	-0.14707355
1	0x3e00f5bb	0.12593739
2	0x3ddf4d24	0.10903385
3	0xbe02a9f8	-0.1276015
4	0x3d464a36	0.048410617
5	0xbca62661	-0.020281972
6	0x3e1c93ea	0.152908
7	0x3e03e184	0.12878996
8	0x3c0d55bb	0.008626397
9	0xbda77cad	-0.08178077
10	0x3e0af2b0	0.1356914
11	0x3df98f38	0.1218552
12	0xbb83f17e	-0.004026591
13	0x3e16d57c	0.14729875
14	0xbdf7c6c2	-0.12098457
15	0xbe2b92f0	-0.16755271
16	0xbcef8787	-0.02923943
17	0x3d4b3020	0.049606442
18	0xbe23991e	-0.15976378
19	0xbcaa5d0b	-0.02079632
20	0xbda1490f	-0.07875263
21	0x3e115c3c	0.14195341
22	0xbe3232e9	-0.17402233
23	0x3df1ebd0	0.11812556
24	0xbd46f811	-0.04857642
25	0x3de2fc27	0.110832505
26	0xbda97c20	-0.08275628
27	0xbda8935e	-0.08231233
28	0xbb13ecd8	-0.002257159
29	0x3b19fd95	0.0023497094
30	0xbe158560	-0.1460166
31	0x3cec84ee	0.02887198
32	0x3e32708b	0.17425744
33	0x3cd4beb5	0.025969842
34	0x3ca0abd0	0.019613177
35	0xbdeff5d9	-0.117168136
36	0xbdec860b	-0.11549004
37	0xbd0524a0	-0.03250563
38	0x3df289ea	0.11842711
39	0x3d655172	0.055985875
40	0x3e15d770	0.14632964
41	0x3e06f081	0.13177682
42	0xbdd01985	-0.101611175
43	0xbe1ac978	-0.15115917
44	0xbc8adcff	-0.016951082
45	0x3e1c7e4a	0.1528255
46	0xbd39d586	-0.045369647
47	0xbdf7f7be	-0.121078
48	0xbcb56ada	-0.022145677
49	0xbcacdbde	-0.021100935
50	0x3dbbb9c4	0.09166291
51	0xbd8648ea	-0.06556876
52	0xbcaea455	-0.021318594
53	0xbddafe99	-0.10693092
54	0xbe1e5ba3	-0.15464644
55	0x3dc6334c	0.09677753
56	0xbd5c1b50	-0.053736985
57	0xbc2dcd4f	-0.010608031
58	0xbc1c2fe3	-0.009532901
59	0xbe312e42	-0.17302802
60	0x3dd5f383	0.10446837
61	0x3dae1630	0.08500326
62	0xbe1f0436	-0.1552895
63	0xbd99b10a	-0.07504471
64	0xbd986ef0	-0.07443035
65	0x3ce6c3bf	0.02816951
66	0xbd73fe78	-0.059568852
67	0xbe239f35	-0.15978701
68	0x3d58e561	0.052953128
69	0x3e19ca6c	0.15018624
70	0xbd8491ad	-0.06473098
71	0xbd0b842f	-0.034061607
72	0xbe0332b8	-0.12812316
73	0x3d9cb045	0.07650808
74	0xbd9364c3	-0.07196953
75	0xbd9eb023	-0.07748439
76	0xbe006239	-0.12537469
77	0xbd700ba5	-0.058604855
78	0xbe1a5162	-0.15070108
79	0x3cb0d2f2	0.021584962
80	0xbd764c25	-0.06013121
81	0xbdd44a7b	-0.103657685
82	0x3dfeaca8	0.12435275
83	0xbd0660b8	-0.032807082
84	0xbd53251c	-0.051549062
85	0xbe09bba0	-0.1345048
86	0x3e131a6a	0.14365545
87	0x3e226e85	0.15862472
88	0xbe036604	-0.12831885
89	0x3e160007	0.14648448
90	0xbd0e7453	-0.034778904
91	0xbe2df3b7	-0.16987501
92	0x3da7f599	0.08201141
93	0x3e241b14	0.16025954
94	0x3db24c35	0.087059416
95	0x3d2e711e	0.042588346
96	0x3dc290ee	0.095002994
97	0x3e20bd6b	0.15697257
98	0xbdd67124	-0.104707986
99	0xbe126bc3	-0.1429892
100	0xbd05f230	-0.03270167
101	0xbe21a50e	-0.1578562
102	0x3bbc676a	0.0057496326
103	0xbdc0ed99	-0.09420318
104	0x3c520945	0.012819593
105	0x3db6475e	0.08900331
106	0xbdd90420	-0.1059649
107	0x3cbd7536	0.02312718
108	0xbe25854c	-0.1616413
109	0xbc30949b	-0.010777618
110	0x3d35f685	0.044424552
111	0x3c12fb1d	0.008971003
112	0xbd2870d6	-0.041123234
113	0xbe0d64a3	-0.13807921
114	0xbdc2abd4	-0.0950543
115	0xbd1e9f13	-0.038725924
116	0x3e0d64a7	0.13807927
117	0xbe1278c9	-0.14303888
118	0x3c6531d5	0.013988932
119	0x3dfbcb0e	0.12294589
120	0xbd19268f	-0.037390288
121	0x3dd68a03	0.104755424
122	0xbd128a4b	-0.035776418
123	0xbdcf4b95	-0.10121838
124	0x3d64d47e	0.05586671
125	0x3d2092ff	0.039202686
126	0xbc81596d	-0.015789712
127	0x3d874113	0.06604209

fc2.weight f4 [120, 128]
0	0xbda2eed8	-0.07955712
1	0x3c9d798b	0.019222995
2	0xbd9cbe77	-0.07653516
3	0x3d249c0b	0.040187877
4	0x3da45742	0.080244556
5	0xbd46d982	-0.048547275
6	0x3d601ccf	0.054714974
7	0x3cbac32c	0.022798143
8	0x3d7c95e4	0.061666384
9	0x3d81f108	0.06344801
10	0x3cb0561f	0.02152544
11	0x3d4f8597	0.05066451
12	0xbc14ae69	-0.009074786
13	0xbcab2e49	-0.020896094
14	0xbd3051b0	-0.043046653
15	0x3daf00fb	0.08545109
16	0x3d29e6bc	0.04147981
17	0x3d3cf0c8	0.046128064
18	0xbbc176f3	-0.0059040724
19	0x3d4a07cc	0.049323842
20	0x3c158b36	0.009127429
21	0xbd6efc7a	-0.05834625
22	0x3d782c91	0.060589377
23	0xbd8d5f2f	-0.069029205
24	0xbccbd355	-0.024881044
25	0x3cf54b4a	0.029943127
26	0xbdb8288c	-0.08992109
27	0xbc0a0540	-0.008424103
28	0xbd0fbd93	-0.0350929
29	0xba8c5e5d	-0.0010709275
30	0x3b8e7f2b	0.0043486557
31	0x3dcfbed4	0.101438195
32	0x3cd7397c	0.026272528
33	0x3d847339	0.064672895
34	0x3d93b959	0.07213087
35	0xbdc94e1d	-0.09829352
36	0xbd944642	-0.07239963
37	0x3d3d9017	0.046279993
38	0x3d74916e	0.059709005
39	0x3ca25d56	0.019819897
40	0x3c148ebb	0.009067233
41	0xbaecb0b9	-0.0018058039
42	0xbdc030ed	-0.09384332
43	0x3c711895	0.0147153335
44	0x3aa0e347	0.0012274765
45	0x3d2bccbe	0.041943304
46	0x3c9e9af2	0.019360993
47	0xbdaa1251	-0.08304275
48	0x3c708f1c	0.014682557
49	0xbd3b7df6	-0.045774423
50	0x3d84df1a	0.06487866
51	0xbdb1b510	-0.08677113
52	0xbd4abe21	-0.049497727
53	0xbcc6d183	-0.024269825
54	0xbd45138b	-0.04811434
55	0xbdbca425	-0.092109956
56	0xbd3b4a92	-0.045725413
57	0x3d6a0274	0.057131246
58	0x3c8fa605	0.017535219
59	0x3cfdbcd4	0.03097383
60	0xbd313a0d	-0.043268252
61	0xbca3e652	-0.020007286
62	0x3d085a87	0.03328946
63	0x3c17f8d6	0.009275636
64	0x3c901eb5	0.017592767
65	0x3b634e44	0.00346841
66	0xbcb4d2c9	-0.022073166
67	0x3d52be99	0.0514513
68	0xbc8eaf06	-0.017417442
69	0x3d214aea	0.039378084
70	0xbd676da6	-0.056501053
71	0xbd933d0c	-0.07189378
72	0x3d9d9eed	0.07696328
73	0xbc813f0b	-0.015777132
74	0xbd0ed392	-0.034869738
75	0x3db53645	0.08848242
76	0x3d2486e9	0.040167723
77	0xbd76a117	-0.06021222
78	0xbd079bd1	-0.033107582
79	0xbdb7f1d2	-0.089816704
80	0xbdb7f797	-0.08982771
81	0xbd7a39a0	-0.06109011
82	0xbd50f176	-0.051011525
83	0x3cae4458	0.021272823
84	0xba4f1f80	-0.0007901117
85	0x3c1b3788	0.009473689
86	0xbdb4c3d5	-0.088264145
87	0x3cabb45c	0.020960025
88	0xbd0eddf8	-0.034879655
89	0xbdb19c55	-0.08672396
90	0xbb7eee5b	-0.0038899395
91	0x3c182e61	0.009288401
92	0x3d95ea3b	0.073200665
93	0xbd828d04	-0.06374553
94	0x3d2f5383	0.042804252
95	0xbd8b11a7	-0.06790476
96	0x3ca77899	0.020443248
97	0x3bd2356f	0.006415061
98	0xbb56b163	-0.003275954
99	0xbc0270d2	-0.007961469
100	0xbd09d1ef	-0.033647474
101	0x3cbf2cb9	0.023336755
102	0x3d9ff760	0.07810855
103	0xbd745c55	-0.059658367
104	0x3ce95f7e	0.028487917
105	0xbd987661	-0.07444454
106	0x3d8bf7a1	0.06834341
107	0xbd214f8c	-0.039382502
108	0xbcf58f2a	-0.029975493
109	0xbd0b1178	-0.033952206
110	0x3bb359ae	0.005473337
111	0xbcf07859	-0.029354261
112	0x3d62236f	0.055209573
113	0xbd2e74df	-0.042591926
114	0xbd0db116	-0.03459271
115	0xbbe1049a	-0.0068670036
116	0x3b0e2724	0.002169081
117	0xbd8ac069	-0.067749806
118	0x3be6ab12	0.007039436
119	0xbbac8798	-0.0052651875
120	0xbd6fc0b9	-0.058533404
121	0x3d6c23a2	0.05765117
122	0x3c128cda	0.008944714
123	0xbd9267c1	-0.07148696
124	0x3d308ddb	0.043104034
125	0xbdc301fa	-0.095218614
126	0xbd7c23e0	-0.06155765
127	0x3cd05ded	0.025435412
128	0xbd6f1074	-0.0583653
129	0xbcdde6d1	-0.0270876
130	0x3d691946	0.05690887
131	0xbd4e1dc1	-0.050321344
132	0x3d14ed00	0.036358833
133	0xbd7f4c89	-0.06232885
134	0x3d0c9c0b	0.0343285
135	0x3d8109e1	0.063007124
136	0xbbe39d5c	-0.006946249
137	0xbcfd60fb	-0.030930033
138	0xbd97baa4	-0.07408646
139	0xbdc2c887	-0.09510904
140	0x3d8b01f8	0.06787485
141	0xbd7f1af4	-0.062281564
142	0xbd6f1029	-0.05836502
143	0x3d9bca48	0.076069415
144	0xbd269653	-0.040670704
145	0x3c4ba633	0.012429762
146	0xbc9519e3	-0.01820082
147	0x3d955f9c	0.07293627
148	0x3d550cfc	0.052014336
149	0x3d88cf0c	0.06680116
150	0x3d7eaaa3	0.06217445
151	0x3d8d6919	0.069048114
152	0xbbc3422d	-0.0059588165
153	0x3d5f4671	0.054510538
154	0xbc8f8f29	-0.017524319
155	0x3c3e3b10	0.011610761
156	0x3d10a101	0.035309795
157	0x3da1aa34	0.07893792
158	0x3d841c63	0.06450727
159	0x3d51d5c5	0.051229257
160	0xbdaab60b	-0.08335503
161	0x3bfaef3f	0.007657915
162	0x3db2581d	0.087082125
163	0xbd350d99	-0.04420242
164	0x3d95a262	0.07306363
165	0xbbd9af45	-0.006643208
166	0xbd8d948b	-0.06913098
167	0xbdcd0dfc	-0.10012433
168	0x3caf46ec	0.021396123
169	0xbb2920be	-0.002580687
170	0x3d3f49e8	0.046701342
171	0x3c88c779	0.016696678
172	0x3c18c191	0.009323494
173	0xbd55f3bf	-0.052234408
174	0x3d07466f	0.033026155
175	0x3a832f2b	0.0010008564
176	0xbc135b66	-0.008993959
177	0xbd998bfc	-0.07497403
178	0xbc1bf86e	-0.0095196795
179	0x3daf77c3	0.085677646
180	0xbd934af0	-0.071920276
181	0x3db1970e	0.086713895
182	0x3d800859	0.06251592
183	0xbbf32759	-0.007420462
184	0xbc16e397	-0.009209535
185	0x3bb8b32c	0.0056365933
186	0x3d25dfc3	0.0404966
187	0x3db5c412	0.08875288
188	0x3b920f68	0.004457403
189	0x3ad0fa5b	0.0015943752
190	0xbd3d4df0	-0.046216905
191	0xbd8303b5	-0.063971914
192	0xbd2e5eef	-0.042571004
193	0xbd466ce8	-0.048443705
194	0x3d8974d6	0.06711738
195	0x3dbce746	0.092237994
196	0xbd487403	-0.048938762
197	0x3d2a2497	0.0415388
198	0xbc9c477d	-0.019077057
199	0x3c7aaa60	0.01529941
200	0xbce83c78	-0.028349146
201	0x3d019570	0.031636655
202	0x3c361dbd	0.011115489
203	0xbccca523	-0.024981087
204	0xbc75ba00	-0.014997959
205	0x3dcc0776	0.099623606
206	0xbd34c3c0	-0.044131994
207	0xbc09c941	-0.008409799
208	0x3db7e1cc	0.08978614
209	0xbcea0256	-0.028565567
210	0xbc797252	-0.01522501
211	0xbcc84f2f	-0.02445182
212	0x3cb6e980	0.022328138
213	0x3ce39fcc	0.027786158
214	0x3cc60e91	0.024176868
215	0xbd8e7fcb	-0.06957968
216	0x3d3c8909	0.046029124
217	0xbdad4b53	-0.084616326
218	0x3cfff226	0.031243395
219	0xbcbf905a	-0.023384262
220	0xbd981f1d	-0.074278094
221	0xbc217352	-0.009854155
222	0x3d7b2967	0.06131878
223	0xbd48b3ce	-0.0489996
224	0xbb6598f8	-0.0035033803
225	0x3d67ad3e	0.0565617
226	0xbdac61ff	-0.08417129
227	0xbd68613e	-0.056733362
228	0x3d950c4c	0.07277736
229	0x3c841f8c	0.016128324
230	0x3d2d2b66	0.042277716
231	0xbdb19141	-0.08670283
232	0xbd0e5ce1	-0.034756545
233	0xbc8a73a1	-0.01690084
234	0x3d9302bd	0.07178257
235	0xbd975c5c	-0.07390663
236	0xbd135914	-0.035973623
237	0x3b748868	0.003731275
238	0x3d707a20	0.058710217
239	0xbc8029a9	-0.015644865
240	0xbd461eb6	-0.048369132
241	0x3c062ad9	0.008188927
242	0xbd8db717	-0.06919687
243	0xbd3af529	-0.04564396
244	0xbd6e18e9	-0.058129225
245	0xbd87dd85	-0.06634048
246	0xbdb3ce2b	-0.08779558
247	0x3d831d5d	0.06402085
248	0x3a9c66df	0.0011932513
249	0x3ca7b13e	0.020470258
250	0x3d31637d	0.04330777
251	0xbbf5ac1c	-0.0074973237
252	0x3c7294c3	0.014805975
253	0x3d0029b2	0.031289764
254	0xbce889d5	-0.028386036
255	0xbd38e81c	-0.04514323

fc2.bias f4 [120]
0	0xbda0c5fd	-0.07850263
1	0xbc87f25e	-0.016595062
2	0xbdcc506b	-0.09976276
3	0xbd8f7268	-0.07004243
4	0xbc6cc4e0	-0.0144512355
5	0x3c51f80e	0.0128154885
6	0x3d599d18	0.053128332
7	0xbd77fdbb	-0.06054471
8	0x3d5c48e2	0.053780444
9	0x3d7fc954	0.06244786
10	0xbd2aeff8	-0.04173276
11	0x3dacbe33	0.08434715
12	0xbdaba451	-0.0838095
13	0xbd9480f1	-0.07251156
14	0xbdabcf39	-0.08389134
15	0xbd140727	-0.036139634
16	0x3d197ec4	0.03747441
17	0x3db44c66	0.08803634
18	0xbcfa8d17	-0.030584855
19	0x3d593c3d	0.053035963
20	0x3d2e4050	0.042541802
21	0xbbac8b07	-0.005265597
22	0x3d924af7	0.07143205
23	0x3d02535f	0.03181779
24	0xbb8a875f	-0.0042275633
25	0xbcd7927c	-0.026314966
26	0xbd586c43	-0.05283762
27	0xbd80fe45	-0.06298498
28	0x3d870faf	0.06594788
29	0xbdc7a30d	-0.09747896
30	0xbd78b160	-0.060716033
31	0xbc95085e	-0.018192466
32	0x3d6f46be	0.058417074
33	0x3c266cee	0.010157807
34	0xbbd5d05f	-0.006525084
35	0xbd6c2e55	-0.057661373
36	0xbd608124	-0.054810658
37	0xbd9b880a	-0.07594307
38	0xbcbb4737	-0.022861106
39	0x3d1d63e7	0.038425352
40	0xbd60dba4	-0.054896966
41	0x3d659aad	0.056055713
42	0x3d8e3e0e	0.0694543
43	0xbd89ab48	-0.067221224
44	0xbcf90d26	-0.030401777
45	0xbd943ea5	-0.07238511
46	0xbd4eb691	-0.050467078
47	0x3d047ecb	0.03234748
48	0xbd565117	-0.052323427
49	0x3d9749ab	0.07387098
50	0x3daaa4bf	0.08332204
51	0x3cd2b55f	0.02572125
52	0x3c66aad4	0.014078815
53	0x3d76b72b	0.060233276
54	0xbd8a82a9	-0.06763203
55	0x3d956070	0.072937846
56	0xbd6fe344	-0.058566347
57	0xbd94ab1a	-0.072591975
58	0x3c151f4e	0.009101702
59	0x3d79f51c	0.06102477
60	0x3d85c21b	0.06531163
61	0xbdbfdcf1	-0.09368313
62	0xbc8731e2	-0.016503278
63	0x3d3c0839	0.04590628
64	0x3d77d3d8	0.060504764
65	0x3dc2cb60	0.09511447
66	0x3d991f96	0.07476728
67	0x3d4d76c9	0.05016211
68	0xbd84c83c	-0.06483504
69	0x3c90bbb9	0.017667638
70	0x3cef10f8	0.029182896
71	0x3cbd3845	0.02309812
72	0xbdc03cf7	-0.09386628
73	0xbd334cc8	-0.043774396
74	0x3cb9ffb4	0.022704937
75	0x3d680092	0.05664117
76	0x3da415e6	0.08011989
77	0xbbe6b7ea	-0.0070409672
78	0x3bd98d6c	0.0066391733
79	0x3cd8ca8f	0.026463775
80	0x3d39ba74	0.04534383
81	0x3cf52dce	0.029929068
82	0xbd9428c6	-0.072343394
83	0xbd272a0c	-0.040811583
84	0xbca2356e	-0.019800868
85	0xbd099f03	-0.03359891
86	0xbd5aba88	-0.053400546
87	0xbda3da6e	-0.080006465
88	0xbc031d16	-0.00800254
89	0xbd135141	-0.03596616
90	0x3dcb0a6a	0.09914096
91	0xbd203466	-0.03911247
92	0xbcf3ba39	-0.029751884
93	0xbd96dae1	-0.073659666
94	0x3d09524d	0.033525754
95	0xbd53d123	-0.05171312
96	0x3c175c58	0.009238325
97	0xbd82674b	-0.06367358
98	0xbd075963	-0.03304423
99	0xbb2fd266	-0.0026828288
100	0x3b95c67d	0.004570781
101	0x3d98b6ff	0.07456779
102	0xbd39f07b	-0.045395356
103	0x3cc2a6f8	0.023761258
104	0xbcf2b4c6	-0.029627215
105	0xbbc0ba38	-0.005881574
106	0x3d25b531	0.040456
107	0x3d9e5923	0.07731845
108	0x3be3e438	0.006954696
109	0x3d85738e	0.06516181
110	0xbd8add10	-0.067804456
111	0x3d6f8300	0.05847454
112	0x3d8bbe2d	0.068233825
113	0x3d99e12a	0.0751365
114	0xbd487fba	-0.048949935
115	0x3cae02cb	0.021241566
116	0x3bf30452	0.0074162865
117	0xbb34c83e	-0.0027585174
118	0xbc25c0fb	-0.010116811
119	0x3dbe5a06	0.09294514
