weights/goose/critic.pth (torch, 19784 bytes, 3 tensors)

fc1.weight f4 [128, 33]
0	0x3f8e0f80	1.109848
1	0x40028ea3	2.0399559
2	0x3fb71dd0	1.4305973
3	0x3f73cf10	0.9523783
4	0x3f2ee3a1	0.68316084
5	0x3f62ad92	0.885461
6	0xbdfd132c	-0.12357172
7	0xbdd281b8	-0.10278648
8	0x3e162f78	0.14666545
9	0x3e84dcd7	0.25949737
10	0xbde71a0b	-0.11284264
11	0x3da09f5b	0.07842895
12	0xbeaabbf7	-0.3334653
13	0x3e802bf1	0.25033525
14	0x3e32287a	0.17398253
15	0xbe1b2e15	-0.15154298
16	0x3e8ecdc6	0.27891368
17	0x3f2ce85e	0.67542064
18	0x3e935ba0	0.28780842
19	0xbe6bbe8a	-0.23021904
20	0x3e4a839f	0.19776772
21	0x3e9d956d	0.30778065
22	0xbd6b6a75	-0.057474572
23	0x3b37ea76	0.0028063334
24	0x3eaa2a26	0.33235282
25	0xbf04cff3	-0.51879805
26	0x3e9e5a1a	0.30928117
27	0xbea8f05f	-0.3299589
28	0xbe82c52f	-0.25541064
29	0xbf0bd675	-0.5462411
30	0xbe378161	-0.17920448
31	0xbcc8cecf	-0.024512677
32	0x3cbf225e	0.023331817
33	0x3faa8661	1.3322259
34	0x40193fc7	2.3945177
35	0x3fc8304c	1.5639739
36	0x3f89d564	1.0768247
37	0x3f97f403	1.1871341
38	0x3f1172a1	0.56815535
39	0xbd317ba9	-0.043330822
40	0xbe881ac7	-0.2658293
41	0xbdca4b2b	-0.098776184
42	0x3f15e341	0.58549887
43	0xbe3f15aa	-0.18660608
44	0x3ba91b7a	0.005160746
45	0xbe831673	-0.25603065
46	0x3eee889d	0.46588603
47	0x3ef68602	0.48149115
48	0x3ef95aec	0.4870218
49	0x3e9847bf	0.29742238
50	0x3f42a85e	0.7603816
51	0x3eabbfb2	0.3354469
52	0xbe7a9f94	-0.24474937
53	0x3c337ede	0.01095554
54	0x3f374479	0.71588856
55	0xbeab10f5	-0.33411375
56	0x3c80bf9e	0.01571637
57	0x3ee96e10	0.45591784
58	0xbee42c52	-0.44565064
59	0x3d948986	0.07252793
60	0xbe91bb44	-0.28463185
61	0xbe204246	-0.15650281
62	0xbe9ebb4e	-0.31002277
63	0xbed2cf82	-0.4117394
64	0x3c8aa6b4	0.016925193
65	0xbe223273	-0.15839557
66	0x3f698692	0.91220963
67	0x3fe97de7	1.8241547
68	0x3faf922e	1.3716486
69	0x3f3ef298	0.7458892
70	0x3f80943d	1.0045239
71	0x3f6dd3d0	0.92901325
72	0xbc861385	-0.01636673
73	0xbe82d150	-0.25550318
74	0x3e0d3342	0.13789085
75	0x3ef148f4	0.4712597
76	0xbea881bb	-0.32911476
77	0x3dad1e7d	0.08453081
78	0xbed6a20d	-0.4192051
79	0x3e9908bb	0.29889473
80	0x3ebb50da	0.36585122
81	0x3db34006	0.08752446
82	0x3dc2233a	0.09479375
83	0x3f0b8fca	0.5451628
84	0x3e395052	0.18097046
85	0xbe3f0f9b	-0.18658297
86	0x3db39507	0.08768659
87	0x3e523de6	0.20531425
88	0xbc4e6099	-0.012596273
89	0x3d78d142	0.06074644
90	0x3e817c37	0.2529008
91	0xbe7a3034	-0.2443245
92	0x3e4ae22b	0.19812839
93	0xbe80e52d	-0.25174847
94	0xbe9924a4	-0.29910767
95	0xbeacf5b6	-0.33781213
96	0x3d148a0b	0.03626446
97	0xbdc568f7	-0.09639161
98	0x3e2981c0	0.16553402
99	0x3d1b388a	0.037895717
100	0xbb3ca2ff	-0.0028783677
101	0xbe8490a1	-0.25891593
102	0xbd5ab00b	-0.053390544
103	0xbc8ec3a1	-0.017427268
104	0xbe8ebfab	-0.27880606
105	0xbe7eb56f	-0.24873899
106	0x3d06b016	0.032882772
107	0x3cba566e	0.022746291
108	0xbe8b065a	-0.27153283
109	0xbe15856a	-0.14601675
110	0xbe70e3ee	-0.23524448
111	0x3d58dc79	0.052944634
112	0xbd287196	-0.04112395
113	0xbc1603d5	-0.009156187
114	0xbe8a0477	-0.2695653
115	0xbdd9e244	-0.1063886
116	0xbc8e03dd	-0.017335827
117	0xbe7867a9	-0.24258293
118	0x3cb9d7ee	0.022685971
119	0xbe5c8f29	-0.21538986
120	0xbe5b3eec	-0.21410722
121	0xbe20ad0a	-0.15691009
122	0xbbede05a	-0.007259411
123	0xbe7bc4c8	-0.24586785
124	0xbdaf2f80	-0.08553982
125	0xbe3e390d	-0.1857645
126	0xbd52933a	-0.051409937
127	0xbe20cd71	-0.1570337
128	0xbde671f8	-0.112522066
129	0xbd1ead94	-0.038739756
130	0xbdcee8ad	-0.10102973
131	0x3d2c9518	0.042134374
132	0xc003501b	-2.0517642
133	0x402c04a3	2.687783
134	0x40043540	2.0657501
135	0x3f1d4e72	0.61447823
136	0x4006bfb2	2.1054502
137	0xbed116a3	-0.40837583
138	0x3bb19ff0	0.0054206774
139	0xbf5141e2	-0.81741154
140	0xbe21f08b	-0.15814416
141	0xbc87b004	-0.016563423
142	0xbf8a3ea9	-1.0800372
143	0xbf9e3f29	-1.2363025
144	0xbf4325fe	-0.76229846
145	0x3f9b6ab6	1.214194
146	0x3f9775c1	1.1832811
147	0xbf8f0c7b	-1.1175684
148	0x3f8201f3	1.0156845
149	0x3f27914a	0.6545607
150	0x3fc5e14b	1.5459379
151	0xbf9b5d03	-1.213776
152	0x3e556d21	0.2084241
153	0x3e8b2eac	0.27184045
154	0xbe244fb0	-0.16046023
155	0x3ef91d27	0.48655054
156	0x3f8342d4	1.0254769
157	0x3edc18e0	0.42987728
158	0x3f0db712	0.5535747
159	0xbf4fae29	-0.8112512
160	0xc0047702	-2.0697637
161	0xbf7bb955	-0.9832967
162	0x3eb91f5c	0.36156738
163	0x3f3c814b	0.73634785
164	0x3ed4da3f	0.4157276
165	0x3f81c033	1.013678
166	0x3ff9b8b4	1.9509492
167	0x3fa5e2d2	1.2959845
168	0x3f1e03dc	0.6172464
169	0x3f3b2a79	0.73111683
170	0x3ecfa3c0	0.4055462
171	0xbe029a95	-0.12754281
172	0xbd9ce83d	-0.076614834
173	0xbe33cf64	-0.17559582
174	0x3f1b37b7	0.6063189
175	0x3bcf1316	0.006319414
176	0x3e8a2051	0.2697778
177	0xbd65a387	-0.056064155
178	0x3e93f7f9	0.28900126
179	0x3e87a770	0.26494932
180	0x3e841922	0.25800425
181	0x3eae2ed9	0.34020117
182	0x3f1411f7	0.5783991
183	0x3ebe6946	0.37189692
184	0xbeb15e6e	-0.34642357
185	0xbdcf7c04	-0.10131076
186	0x3eedd80d	0.46453896
187	0xbe96a155	-0.29419962
188	0xbd7c095c	-0.061532363
189	0x3ead8618	0.33891368
190	0xbe8743ed	-0.2641901
191	0x3dc1bd0f	0.09459888
192	0xbd975e81	-0.07391072
193	0xbe0af162	-0.13568643
194	0xbe7977a8	-0.24362051
195	0xbeb9a5c1	-0.36259273
196	0xbdbe6a85	-0.09297661
197	0xbcb45f4b	-0.022018095
198	0x3f6102b1	0.8789473
199	0x400412f4	2.0636568
200	0x3f9fc9f0	1.2483501
201	0x3f612b4e	0.879567
202	0x3f92d2aa	1.147054
203	0x3f6abeff	0.91697687
204	0xbda50b9d	-0.08058856
205	0xbe5aa97a	-0.21353713
206	0x3e4c9b10	0.19981027
207	0xbdefbfe4	-0.11706522
208	0xbf045dd6	-0.5170568
209	0xbe92c91a	-0.28669053
210	0xbe296d34	-0.16545564
211	0x3e9dde55	0.30833688
212	0x3e76fdbb	0.24120228
213	0x3cd005eb	0.025393447
214	0x3dbef58c	0.09324178
215	0x3eb692e4	0.35658944
216	0x3dd76e5c	0.10519096
217	0xbec3fed9	-0.3828037
218	0x3e38c1ed	0.18042727
219	0x3ebb5cbf	0.36594197
220	0x3dc40f9d	0.095732905
221	0xbccf9f1e	-0.025344428
222	0x3ea3e8eb	0.3201364
223	0xbeb5fe24	-0.35545456
224	0x3e531f32	0.20617369
225	0xbe5771fb	-0.21039574
226	0xbea87d69	-0.3290818
227	0xbf02b691	-0.51059824
228	0xba86ab03	-0.0010274354
229	0x3e4b0b70	0.19828582
230	0xbca02d43	-0.019552832
231	0x3f959050	1.1684666
232	0x4014c610	2.3245888
233	0x3fc6e85f	1.5539664
234	0x3f33c90a	0.70228636
235	0x3f2f24b7	0.684154
236	0x3f9001c3	1.1250538
237	0x3c3f0940	0.01165992
238	0xbe8294f3	-0.25504264
239	0x3e7a33d7	0.24433838
240	0x3efda53b	0.49540123
241	0xbe612617	-0.21987186
242	0x3dda49d4	0.10658613
243	0xbe7c5156	-0.24640402
244	0x3f16c6f3	0.5889732
245	0x3e389be8	0.18028224
246	0xbc31c4bf	-0.010850131
247	0x3e533008	0.20623791
248	0x3ef7bf52	0.48388153
249	0x3e020e84	0.1270085
250	0xbe5352bf	-0.20637034
251	0x3e514426	0.20436153
252	0x3e423718	0.18966329
253	0xbd983b83	-0.07433226
254	0x3d835976	0.06413548
255	0x3ea89db1	0.3293281

fc1.bias f4 [128]
0	0x3d1a78ff	0.037713047
1	0xbde79fbf	-0.11309766
2	0xbe1b9072	-0.1519182
3	0xbe136b35	-0.14396365
4	0xbece63c3	-0.40310487
5	0xbcbae59e	-0.022814568
6	0x3bb17bb1	0.0054163565
7	0x3dac7caf	0.08422219
8	0xbd4e9507	-0.050435092
9	0xbd041cab	-0.032253902
10	0xbdbcd4c2	-0.09220268
11	0x3db3643e	0.08759354
12	0xbdbdf900	-0.092760086
13	0xbe0c47fc	-0.13699335
14	0xbef6b2f0	-0.48183393
15	0x3d0fb795	0.035087187
16	0xbc5da372	-0.013527738
17	0xbe110efb	-0.14165871
18	0xbe438f4d	-0.19097634
19	0x3d88361a	0.06650944
20	0x3da944e4	0.08265093
21	0xbe7733b2	-0.24140814
22	0x3db94ae2	0.09047486
23	0xbe2e933c	-0.17048353
24	0xbe1595f6	-0.14607987
25	0xbdaa65ea	-0.0832022
26	0xbe297426	-0.16548213
27	0x3ed0012c	0.40625894
28	0xbe5aa872	-0.2135332
29	0xbdb48a22	-0.08815409
30	0xbd8a2f93	-0.06747355
31	0x3c987617	0.018610997
32	0xbd30a506	-0.04312613
33	0x3f0dfbc1	0.5546227
34	0x3db96e05	0.09054188
35	0xbdcc9212	-0.09988798
36	0xbe000f93	-0.12505941
37	0xbe1d83e1	-0.15382339
38	0xbb169e10	-0.0022982396
39	0xbda129d6	-0.07869308
40	0x3e1deaa1	0.15421535
41	0xbe06175d	-0.1309485
42	0xbf7c33c3	-0.9851648
43	0x3d79c771	0.060981218
44	0xbdc5d4bb	-0.09659716
45	0xbe1fb3c0	-0.15595913
46	0xbeab02f5	-0.33400694
47	0xbe599e9c	-0.21251911
48	0x3ccbddba	0.024886
49	0xbddd7887	-0.108140044
50	0xbc8e4844	-0.017368443
51	0x3c940672	0.01806948
52	0xbd922e4e	-0.07137738
53	0xbe3988c0	-0.18118572
54	0xbd361772	-0.044455953
55	0xbe480d28	-0.19536269
56	0xbe5191b6	-0.2046574
57	0xbcf04785	-0.029330978
58	0x3d3a5f3f	0.04550099
59	0xbe83dcb1	-0.25754312
60	0xbd8f36e5	-0.06992892
61	0x3e1d024e	0.1533291
62	0xbd6706b3	-0.056402873
63	0xbe83e707	-0.25762197
64	0xbdb64d9d	-0.08901522
65	0xbe0e488b	-0.1389486
66	0xbdf60932	-0.120134726
67	0xbd47b93c	-0.048760638
68	0xbdfce385	-0.123480834
69	0x3dac22c9	0.08405072
70	0x3e06f221	0.13178302
71	0xbde5bdad	-0.112178184
72	0xbd8d1372	-0.068884745
73	0xbe2cd2ef	-0.1687734
74	0xb980b9c8	-0.0002455248
75	0x3d62db03	0.055384647
76	0xbde83eeb	-0.11340126
77	0xbe0a16c5	-0.13485248
78	0xbe75c497	-0.24000774
79	0xbe8410d7	-0.25794098
80	0xbd68c6d4	-0.056830242
81	0x3c7fd704	0.015615229
82	0xbd9d2604	-0.076732665
83	0x3d4f585b	0.05062137
84	0x3cbe6178	0.023239836
85	0x3dbe4bb7	0.09291785
86	0xbd3a6b25	-0.045512337
87	0x3f41006f	0.75391287
88	0xbdd1cdce	-0.10244332
89	0x3c91d9c4	0.017804034
90	0x3e8b981e	0.27264494
91	0xbd0399d0	-0.03212911
92	0xbd0fe6e0	-0.03513229
93	0x3dabbd4c	0.08385715
94	0xbe844383	-0.25832757
95	0x3c89ac57	0.01680581
96	0xbd9ca956	-0.07649486
97	0xbe3075ab	-0.17232387
98	0x3d6cfa00	0.057855606
99	0xbe2763a5	-0.16346605
100	0xbf110d88	-0.5666127
101	0xbe2297c2	-0.15878204
102	0xbe65be4f	-0.22435878
103	0xbdfb639f	-0.122748606
104	0xbe5ffbb4	-0.21873361
105	0xbf3cfab1	-0.73820025
106	0xbc81b779	-0.015834557
107	0xbd353edf	-0.04424941
108	0xbe50dbd1	-0.20396353
109	0xbe89b871	-0.2689853
110	0x3c53c537	0.012925438
111	0x3dd52398	0.104071796
112	0xbe3948c9	-0.18094172
113	0x3e16e102	0.14734271
114	0x3e03afb0	0.12859988
115	0x3d0d98d1	0.034569565
116	0xbda80d7e	-0.082056984
117	0xbe84d342	-0.25942427
118	0xbe1ed509	-0.15510954
119	0xbf95925c	-1.168529
120	0xbd79673b	-0.060889464
121	0x3e104492	0.14088657
122	0xbdbcb28a	-0.09213741
123	0xbe4819f0	-0.19541144
124	0xbd2c4a8f	-0.042063292
125	0xbd03233a	-0.032016017
126	0xbde550cd	-0.11197052
127	0x3fb3246f	1.3995494

fc2.weight f4 [1, 128]
0	0xbea8b959	-0.3295391
1	0xbed49e78	-0.41527152
2	0xbea1358a	-0.3148616
3	0xbd312cdd	-0.043255676
4	0xbfe49562	-1.7858088
5	0xbea851ca	-0.328749
6	0xbee80fd3	-0.45324573
7	0xbefa3ad5	-0.4887301
8	0xbcee904f	-0.029121546
9	0xbf348866	-0.7052063
10	0xbc26d5cf	-0.010182812
11	0xbf3c27ff	-0.7349853
12	0xba969259	-0.0011487707
13	0xbefa8bfe	-0.4893493
14	0xbf6c38d4	-0.9227421
15	0xbef13f30	-0.4711852
16	0xbd846352	-0.06464256
17	0xbccd2594	-0.025042333
18	0xbed7eb19	-0.42171553
19	0xbec4cf68	-0.38439488
20	0xbe971cbb	-0.29514107
21	0xbd3c3a11	-0.045953814
22	0xbed6229a	-0.41823274
23	0xbd9a014f	-0.07519781
24	0xbe75233f	-0.23939227
25	0xbebb6248	-0.3659842
26	0xbef9dce6	-0.48801345
27	0xc0381327	-2.876169
28	0xbd2d15ba	-0.04225705
29	0xbebd02c1	-0.36916164
30	0xbf097ec1	-0.53709036
31	0xbf251282	-0.64481366
32	0x3c40fcb6	0.011779001
33	0xc0669f95	-3.60349
34	0xbcb9fb57	-0.022702856
35	0xbb3ae0bf	-0.0028515307
36	0xbca7b39a	-0.020471383
37	0xbc00f56f	-0.007871016
38	0xc031b424	-2.77662
39	0xbeeedec8	-0.46654344
40	0xbf4c34f9	-0.7976833
41	0xbf39d3b9	-0.7258869
42	0xc0013fac	-2.0195112
43	0xbecbdd0e	-0.3981709
44	0xbf071d5a	-0.5277916
45	0xbf7c7bc5	-0.9862636
46	0xbf5a26c0	-0.8521538
47	0xbe9fb5ae	-0.31193298
48	0xbf38b07f	-0.7214431
49	0x3c9487e1	0.018131198
50	0xbd94a5b7	-0.0725817
51	0xbf2de64f	-0.6792955
52	0xbabc899c	-0.0014384273
53	0xbd0fb386	-0.035083316
54	0xbed217b9	-0.41033724
55	0xbef85f81	-0.48510364
56	0xbf5ca3d5	-0.8618749
57	0x4080e7dd	4.0283036
58	0xbf0653e9	-0.52471787
59	0xbd0e72d4	-0.034777477
60	0xbeaecc21	-0.34140113
61	0xbeceb081	-0.40369037
62	0xc04d80b6	-3.210981
63	0xbc0bba47	-0.008528299
64	0xbf16699e	-0.5875491
65	0xbef67d78	-0.481426
66	0xbd1437e0	-0.0361861
67	0xbeb3baf4	-0.3510357
68	0xc00eb079	-2.229521
69	0xbf026fec	-0.5095203
70	0xbed852bd	-0.42250624
71	0xbc81b832	-0.015834901
72	0xbce3c831	-0.02780542
73	0xbe9a3cfa	-0.30124646
74	0xbed45101	-0.4146805
75	0xbee29f6b	-0.4426225
76	0xbeb999ce	-0.36250156
77	0xbec1fddc	-0.37888992
78	0xbd751f11	-0.05984408
79	0xbd184720	-0.037177205
80	0xbc9f7096	-0.019462865
81	0xbefe449a	-0.49661714
82	0xbf2dca4a	-0.67886794
83	0xbd56745f	-0.052357074
84	0xbf22b69f	-0.6355991
85	0xbede9a99	-0.43477324
86	0xbee18473	-0.44046363
87	0xc044a5c1	-3.0726168
88	0xbd134baf	-0.03596085
89	0xbefbe736	-0.49199837
90	0xc038de73	-2.8885772
91	0xbc4f5ce5	-0.012656425
92	0xbd2918af	-0.041283306
93	0xbee0bc03	-0.43893442
94	0xbce0aa42	-0.027424935
95	0xbec7cd04	-0.39023602
96	0xbcaa7941	-0.020809771
97	0xbd067518	-0.032826513
98	0x3d4d4222	0.050111897
99	0xbf1d301d	-0.6140154
100	0xbf8836ec	-1.0641761
101	0xbec0034d	-0.37502518
102	0x3b526109	0.0032101294
103	0xbd783fee	-0.060607843
104	0xbf16e00e	-0.5893563
105	0xbfcf7d5e	-1.6210134
106	0xc0076530	-2.115551
107	0xbec867e4	-0.39141762
108	0xbf11309f	-0.56714815
109	0xbd55a7d8	-0.05216202
110	0xbd827041	-0.06369067
111	0xbeb5b4a1	-0.3548937
112	0xbf2ec7c8	-0.6827359
113	0xbebaea7a	-0.36507016
114	0xbf23d3e5	-0.639952
115	0xbd8fd57f	-0.07023143
116	0xbd8b1900	-0.06791878
117	0xbfe032a7	-1.7515458
118	0xbeb8f0b8	-0.36121154
119	0xc04171bb	-3.0225666
120	0xbf54ec09	-0.8317266
121	0xbf3eed7c	-0.7458112
122	0xbee2f1db	-0.44325146
123	0xbcf6f423	-0.03014571
124	0xbd263530	-0.040578067
125	0xbeadeb29	-0.33968475
126	0xbd6e3f57	-0.058165874
127	0xc03cc6ff	-2.9496458
