weights/goose/critic.pth (torch, 19784 bytes, 3 tensors)

fc1.weight f4 [128, 33]
0	0xc12ec8dd	-10.924039
1	0xc16baf16	-14.730246
2	0xc2015125	-32.329243
3	0x40102af1	2.252621
4	0x40888f97	4.267528
5	0xbf84ddae	-1.0380151
6	0xc1fd1226	-31.633862
7	0xc1158b55	-9.346517
8	0xc1b36862	-22.425968
9	0x4086e0f6	4.214961
10	0xbf1558c9	-0.583386
11	0xc18e4b29	-17.7867
12	0xc18b33b8	-17.400253
13	0xc23ec5f4	-47.693314
14	0xc25531c2	-53.29859
15	0x3fa65be0	1.2996788
16	0xc1c3589c	-24.418266
17	0xc1bfe4f9	-23.986803
18	0x3d7d6e95	0.061873037
19	0x41976ecd	18.929102
20	0xc12a1628	-10.630409
21	0xbfd36d77	-1.6517781
22	0xbf993302	-1.1968691
23	0x3f6904e9	0.9102312
24	0xc0c10827	-6.032245
25	0xc1a41465	-20.509958
26	0xc09ad2b1	-4.838219
27	0xc1f5acef	-30.70944
28	0xc1df6f1b	-27.92925
29	0xc1a3ddb7	-20.48326
30	0xc19867a9	-19.050615
31	0xc1c13efc	-24.155754
32	0xc1342ed5	-11.261434
33	0x40f30e69	7.595509
34	0xc08f5ab4	-4.479822
35	0xc1a4f231	-20.618258
36	0xc21cc36e	-39.19085
37	0xc1ca2c64	-25.271675
38	0xc0a7c5db	-5.2429023
39	0xc0a8e976	-5.2784986
40	0xc1bc0b48	-23.505508
41	0xc161c83c	-14.111385
42	0xc28b5cf1	-69.681526
43	0x3f871f13	1.0556358
44	0x3fd5b4c5	1.6695791
45	0xc168199c	-14.506252
46	0xc2006bee	-32.1054
47	0xc02539a2	-2.5816426
48	0xc1fd9932	-31.699802
49	0xc1247c9c	-10.280422
50	0x3f941c06	1.1571052
51	0xbfd47043	-1.659676
52	0xc206f3d9	-33.738132
53	0x3ec0d91e	0.37665647
54	0xc18c491c	-17.535698
55	0xc16bce06	-14.737799
56	0xc1a59dd3	-20.702063
57	0xc157a56f	-13.477889
58	0x413b3593	11.70058
59	0xc150311a	-13.011988
60	0x3f2fe593	0.6870968
61	0xc08a7ce1	-4.327744
62	0xc1a40919	-20.504442
63	0xc102c8f9	-8.174066
64	0xc1333152	-11.199541
65	0xc1c73000	-24.898438
66	0xc1b466e8	-22.550247
67	0x3f43bbdf	0.76458544
68	0x40a7f420	5.2485504
69	0x417cbcc4	15.796085
70	0xc0cde972	-6.4347467
71	0xc1c935dc	-25.151299
72	0x3fcf4e5e	1.6195791
73	0xc216f84b	-37.742474
74	0x3ff84683	1.9396518
75	0xc0cc4fb0	-6.3847275
76	0xc2067328	-33.612457
77	0xc059c8e8	-3.4028873
78	0xc2105d5f	-36.091183
79	0xbd8edc4c	-0.06975612
80	0xc1800106	-16.0005
81	0x405af7e3	3.4213798
82	0xc23a153b	-46.520733
83	0xc1aefab3	-21.872412
84	0xc203384b	-32.804974
85	0xc15a45d4	-13.642048
86	0xc215f93d	-37.493397
87	0xc20f451a	-35.817482
88	0xc1944734	-18.534767
89	0x406a17ee	3.6577106
90	0x3f134c6f	0.57538503
91	0xc1fe32b0	-31.77475
92	0xc2553a2c	-53.30681
93	0xc1b6bc89	-22.842058
94	0xc1978562	-18.940128
95	0xc19016db	-18.01116
96	0xc1afa515	-21.955606
97	0xc01ac3ef	-2.4182088
98	0xc1fcabe5	-31.583933
99	0xc1c7f9c5	-24.996958
100	0x3eb7e6b5	0.35918203
101	0x3f468aa2	0.77555287
102	0xc07103dc	-3.7658606
103	0xc2131bdf	-36.777218
104	0x4114bef3	9.296618
105	0xc181ec42	-16.24036
106	0xc21073d3	-36.11311
107	0xc02e72f2	-2.7257657
108	0xc15f0513	-13.938739
109	0xc295d241	-74.91065
110	0xc2508210	-52.127014
111	0x402291ee	2.5401568
112	0x417162e2	15.086641
113	0xc21d3f41	-39.31177
114	0xc1e8f9df	-29.122007
115	0x3f84872d	1.0353752
116	0xc196bab3	-18.841162
117	0xc1978b85	-18.943125
118	0xc101c8f0	-8.111557
119	0x402c191a	2.689032
120	0xc229bee6	-42.436424
121	0xc1141be1	-9.256806
122	0xc0f4db22	-7.6517496
123	0xc114a630	-9.290573
124	0xc2553a8a	-53.307167
125	0x3f22984e	0.6351365
126	0xc1739414	-15.223652
127	0xc11159a8	-9.084389
128	0xc1d9d32e	-27.228115
129	0xc1aca0aa	-21.57845
130	0xc1a06cfb	-20.053213
131	0xc107c1c1	-8.484803
132	0xc1992763	-19.144232
133	0x40b89563	5.7682357
134	0xc18f5f50	-17.92154
135	0xbf2b5add	-0.6693552
136	0xbfff5eeb	-1.9950842
137	0xc14894ed	-12.536359
138	0xc17549c0	-15.330505
139	0xc09f77c8	-4.9833717
140	0xc025d3ba	-2.5910478
141	0x416c30aa	14.761881
142	0xc2266985	-41.603046
143	0xc1a4ba55	-20.590982
144	0xc1c6ec97	-24.865522
145	0xc0a6b772	-5.209893
146	0xc1e04bc6	-28.036999
147	0xbd589ffc	-0.052886948
148	0xc11572d9	-9.340539
149	0xc25cdb81	-55.21436
150	0xc14d1a25	-12.818883
151	0xc1c21609	-24.26076
152	0xc20a2723	-34.53822
153	0xc19462c1	-18.54822
154	0xc1f23a4c	-30.278465
155	0xc1d0ab80	-26.08374
156	0xc162174d	-14.130689
157	0xc17ed307	-15.92652
158	0xc142e768	-12.181496
159	0xc23137ac	-44.304367
160	0xc1736191	-15.21132
161	0xc0c1ab85	-6.0521874
162	0xc16a92e6	-14.660864
163	0xc1ef82a5	-29.938791
164	0xc1ba7d8c	-23.311302
165	0xc1ee3ec3	-29.780645
166	0xc0d76897	-6.7315173
167	0xc1ed4487	-29.65846
168	0x406201e7	3.531366
169	0xc191655d	-18.174494
170	0xc13ea243	-11.914615
171	0xc0cd8b4f	-6.4232554
172	0xc177092c	-15.439739
173	0xc0a51e49	-5.159947
174	0xc28b6262	-69.692154
175	0x400687e0	2.1020432
176	0xc19029e9	-18.020464
177	0xc091f2fe	-4.560912
178	0xc20ee481	-35.72315
179	0x3def704f	0.11691343
180	0x40e024f3	7.0045104
181	0xc22fee87	-43.982937
182	0xc1ac0e2e	-21.506924
183	0xc0c772fd	-6.2327867
184	0xc21c2152	-39.03254
185	0xc1aeaacb	-21.833395
186	0x40809d9c	4.0192394
187	0xc237c800	-45.945312
188	0xc18ba436	-17.455181
189	0xc229e322	-42.47181
190	0xc099e4a1	-4.809159
191	0xc21822b9	-38.03391
192	0xbf9124da	-1.1339371
193	0xc19334ca	-18.400776
194	0x40903e1a	4.5075808
195	0xc1acb647	-21.589003
196	0xc1c0afca	-24.085835
197	0xc1e51e7b	-28.639883
198	0xbefda59b	-0.4954041
199	0x40d516cc	6.659033
200	0x410e4891	8.892716
201	0xc0d55fda	-6.6679506
202	0x3f749138	0.95534086
203	0xc007951f	-2.1184766
204	0x41b31c7a	22.388905
205	0x41a20f7a	20.257557
206	0x420055c4	32.083755
207	0x3f337a84	0.7010882
208	0x40fea161	7.9571996
209	0x4108d0fb	8.551021
210	0x41cec8a1	25.847963
211	0x40e0cf97	7.0253406
212	0x41889fc2	17.078007
213	0x41d5b614	26.713905
214	0x421dcb20	39.448364
215	0x420fd070	35.953552
216	0x41cfe64f	25.987455
217	0x41fb6386	31.423595
218	0x41b6e942	22.863895
219	0x41d91907	27.13722
220	0x4171d6f3	15.114978
221	0x4102ccd7	8.17501
222	0x4181e383	16.23609
223	0x418dc87f	17.722898
224	0x41a79bdf	20.951109
225	0xc046db34	-3.107129
226	0x4032868b	2.7894619
227	0x40906582	4.512391
228	0x414e57d9	12.896447
229	0x41b41d07	22.514174
230	0x41a32eb3	20.397802
231	0xbdf0c422	-0.11756159
232	0xc18a4db8	-17.287949
233	0xc1f6be28	-30.84285
234	0xc1855b8a	-16.669697
235	0x401e9533	2.4778564
236	0xc21a5136	-38.579308
237	0xc223219d	-40.782825
238	0xc1c29270	-24.321503
239	0xc1b1c19b	-22.219534
240	0xc201ea0f	-32.478573
241	0x40427703	3.038514
242	0xc0d89f01	-6.7694097
243	0xc22b3bb7	-42.808315
244	0xc09096e3	-4.518419
245	0xc157992a	-13.474894
246	0x41961b7f	18.763426
247	0xc11c6fc2	-9.777285
248	0xc1096305	-8.586675
249	0xc0ac050b	-5.3756156
250	0xc1a4eaff	-20.614744
251	0xc1c50cf0	-24.631317
252	0xc01ac724	-2.4184046
253	0xc091c471	-4.5552297
254	0xbf983b54	-1.1893106
255	0x3f928720	1.1447487

fc1.bias f4 [128]
0	0xc25e8ffc	-55.64061
1	0xc20b8220	-34.877075
2	0xc25e3538	-55.55197
3	0xc25a079e	-54.50744
4	0xc1de0ac0	-27.755249
5	0xc21832ef	-38.04974
6	0x41aefacc	21.87246
7	0xc2313b76	-44.308067
8	0xc260e89a	-56.22715
9	0xc22cacec	-43.16887
10	0xc20b6e8f	-34.857967
11	0x41eb1483	29.385015
12	0xc26f884e	-59.88311
13	0x41871a76	16.88792
14	0xc228d357	-42.206387
15	0xc289a019	-68.81269
16	0xc211d842	-36.46119
17	0xc1c83b9e	-25.02911
18	0xc23dd40e	-47.457085
19	0xbf172b0f	-0.5905008
20	0xc21e4cc5	-39.57497
21	0x4257a991	53.915592
22	0xc28c5fbe	-70.187
23	0xc218c310	-38.19049
24	0xc2112861	-36.289433
25	0xc2720027	-60.50015
26	0xc20f7390	-35.862854
27	0x42ae9313	87.287254
28	0xbee976f0	-0.45598555
29	0xc1fe83df	-31.81439
30	0xc21548ca	-37.321083
31	0x4212df19	36.71787
32	0xc216d70f	-37.71002
33	0xc23cde9f	-47.217403
34	0xbf152226	-0.5825523
35	0xc18e7ea3	-17.811834
36	0x42139b7d	36.901844
37	0xc21b6ced	-38.856373
38	0xc24d22f9	-51.284153
39	0xc251ac50	-52.418274
40	0xc202fb12	-32.745186
41	0xc23f8a19	-47.88486
42	0x42092d4c	34.294235
43	0xbe7ca22f	-0.24671243
44	0xc25ca986	-55.16555
45	0xc2627760	-56.616577
46	0xc28f3132	-71.596085
47	0xc27f8ac9	-63.885532
48	0xbdf5511f	-0.11978363
49	0xc264cf32	-57.20234
50	0xc2624f73	-56.577587
51	0xc255ce7e	-53.451653
52	0xc25802b6	-54.002647
53	0xc23f79fb	-47.86912
54	0xc2a07450	-80.22717
55	0xc26ce76b	-59.225994
56	0xc20ef1c5	-35.736103
57	0xc1cec4d0	-25.8461
58	0xc20b3ba6	-34.80825
59	0xc1ef823e	-29.938595
60	0x41c2e3dc	24.36126
61	0xc2491714	-50.272537
62	0x419376fc	18.433098
63	0xc2966d1b	-75.2131
64	0xc28309a8	-65.51886
65	0xc25067ba	-52.101295
66	0xc22bf1ce	-42.986137
67	0xc268bb94	-58.18318
68	0x41b20263	22.251165
69	0xc2384af3	-46.073193
70	0x4205d230	33.45526
71	0x425662a0	53.596313
72	0x4233ad8a	44.91947
73	0xbdb0d3da	-0.086341575
74	0xbf1962ad	-0.5991619
75	0xbef24a98	-0.47322536
76	0x4257cdfa	53.95115
77	0xc27a453e	-62.56762
78	0x42967db1	75.24549
79	0xc2a35625	-81.66825
80	0xc254d718	-53.210052
81	0xc23f045c	-47.754257
82	0xc24ad8e2	-50.7118
83	0xc2011189	-32.267124
84	0xc26dc911	-59.446354
85	0x421972d7	38.36215
86	0xc2145086	-37.078636
87	0xc285f25c	-66.97336
88	0xbe062b93	-0.1310256
89	0xc24277aa	-48.61686
90	0xc23425a1	-45.036747
91	0x413dc293	11.860003
92	0x423eefc5	47.73415
93	0x4223e47f	40.97314
94	0xc23bf15b	-46.9857
95	0xc2651481	-57.270023
96	0x422c8cbf	43.137447
97	0xc26b271a	-58.788185
98	0xc1e4cbc8	-28.599503
99	0xc2509523	-52.14564
100	0xbe3d6127	-0.18494092
101	0xbf05c891	-0.52259165
102	0xc25c8fa4	-55.140274
103	0x42218859	40.383152
104	0x424ec2ae	51.690117
105	0xbf0f34b6	-0.55939806
106	0xbef3cbe4	-0.47616494
107	0x419926e6	19.143993
108	0xc229c5ca	-42.443153
109	0xc2002d4d	-32.04424
110	0xc2918229	-72.75422
111	0xc1d0a18e	-26.078884
112	0xc25aa0d0	-54.657043
113	0xc0ad008f	-5.406318
114	0xc25127ab	-52.28874
115	0xc1c76ce2	-24.928165
116	0xc22afa4e	-42.74444
117	0xc2271f35	-41.780476
118	0xc2341f2e	-45.03045
119	0xc22309c0	-40.75952
120	0x421ccc23	39.199352
121	0xc24ba8ae	-50.914726
122	0x42a52910	82.5802
123	0xc2595c1a	-54.339943
124	0xc268b3f9	-58.175755
125	0xc21fe878	-39.97702
126	0xc19991f3	-19.196264
127	0xc1e5a519	-28.705614

fc2.weight f4 [1, 128]
0	0xc2e15000	-112.65625
1	0xc2e94ec7	-116.65386
2	0xc31a42d8	-154.26111
3	0xc304c739	-132.77821
4	0xc31cd93b	-156.84856
5	0xc31e5bdf	-158.35887
6	0xc242b92b	-48.68083
7	0xc31b8c88	-155.54895
8	0xc332a1ce	-178.63205
9	0xc320eacb	-160.91716
10	0xc2d6f60a	-107.480545
11	0x42697c74	58.371536
12	0xc3173c6e	-151.23605
13	0x4266382e	57.554863
14	0xc2928a2e	-73.26988
15	0xc3004889	-128.28334
16	0xc3273bd0	-167.23364
17	0xc29cb480	-78.35254
18	0xc3396bf5	-185.4217
19	0x3e92fcc6	0.28708476
20	0xc309464c	-137.2746
21	0xc298f672	-76.48134
22	0xc2ea4778	-117.13959
23	0xc336a9d3	-182.66338
24	0xc310e217	-144.88316
25	0xc3097706	-137.46494
26	0xc31a46ec	-154.27704
27	0x40e499cd	7.1437745
28	0xbd2b0add	-0.041758407
29	0xc2b5ed61	-90.96363
30	0xc310558e	-144.3342
31	0xc24f73c3	-51.86305
32	0x433f0c6e	191.04855
33	0xc318b4b1	-152.70583
34	0x3e8f251d	0.27958003
35	0xc28a2e45	-69.09037
36	0xc219e35f	-38.472042
37	0xc25cf2d1	-55.237125
38	0xc31f7219	-159.4457
39	0xc2fc4d3c	-126.15085
40	0xc31d0b3c	-157.04388
41	0xc31326af	-147.15111
42	0x4268592d	58.087086
43	0xbd03d40b	-0.03218464
44	0xc2aafce4	-85.49393
45	0xc3242c3d	-164.1728
46	0xc31798ca	-151.59683
47	0xc32b16e6	-171.08945
48	0xbc72caa2	-0.014818819
49	0xc35933f8	-217.203
50	0xc34907d6	-201.03061
51	0xc33155ff	-177.33592
52	0xc3346496	-180.39291
53	0xc31a9dab	-154.61589
54	0xc2dd8873	-110.7665
55	0xc3365a7b	-182.35344
56	0xc348e8d0	-200.90942
57	0x42ef0c91	119.52454
58	0xc2fac513	-125.38491
59	0x431a5a1e	154.35202
60	0x4253eae9	52.979404
61	0x4339e0d9	185.87831
62	0x426ce44b	59.222942
63	0xc3349a15	-180.60188
64	0xc2d06e3e	-104.21532
65	0xc2e4fbd6	-114.49187
66	0xc339f60b	-185.9611
67	0x432cd844	172.84479
68	0x4210bfe8	36.18741
69	0xc330a8d5	-176.6595
70	0xc286dca7	-67.43096
71	0x411878e7	9.529517
72	0x425d603c	55.34398
73	0xbd072d5d	-0.033002246
74	0xbd223c33	-0.03960819
75	0xbd8eae75	-0.06966869
76	0x4113fbfa	9.249018
77	0x420cf5c6	35.240013
78	0xc100de80	-8.054321
79	0xc2dbf3d0	-109.9762
80	0xc31be53b	-155.89543
81	0xc3182beb	-152.17155
82	0xc32b4bbb	-171.29582
83	0xc304c0e4	-132.75348
84	0xc33947eb	-185.28093
85	0xc25053e8	-52.08194
86	0xc33863d9	-184.39003
87	0x4328fd0f	168.98851
88	0xbd59ce59	-0.053175304
89	0x431fd5a1	159.83449
90	0xc31bfdad	-155.99092
91	0xc25886fa	-54.131813
92	0x42907df5	72.24601
93	0x42a62022	83.06276
94	0x4320695c	160.41156
95	0x42e2e006	113.437546
96	0x425c2b21	55.042118
97	0xc34081de	-192.5073
98	0xc1dde2cd	-27.735743
99	0xc332c470	-178.76733
100	0xbd10e367	-0.035373118
101	0x3e8496f8	0.2589643
102	0x43569e5e	214.61862
103	0x42466a9a	49.604103
104	0xc291e43f	-72.94579
105	0x3e991c3e	0.2990436
106	0x3e9479fd	0.2899932
107	0xc27c2ba9	-63.042637
108	0xc335fffb	-181.99992
109	0xc2c87bd6	-100.24187
110	0xc2a44d86	-82.15141
111	0xc32c7277	-172.44713
112	0x431ad6cd	154.83907
113	0xbfe77cad	-1.8084923
114	0x43285941	168.34865
115	0x42ffda2f	127.92614
116	0xc2dee4dd	-111.447
117	0xc31b13d9	-155.07753
118	0xc339a491	-185.64284
119	0xc3063733	-134.21562
120	0xc2b8378e	-92.108505
121	0xc3117205	-145.44539
122	0xc1a4312f	-20.524015
123	0xc327dff1	-167.87477
124	0xc31f98b4	-159.5965
125	0xc2f9f32a	-124.97493
126	0xc27ad46c	-62.707443
127	0x430d9cbb	141.61223
